results/figures/2000_500/best_model.pt (torch, 91044 bytes, 30 tensors)

net.0.weight f4 [32, 1]
0	0x3edd9b78	0.43282676
1	0xbda12490	-0.07868302
2	0x3ee10bd0	0.43954325
3	0xbf065324	-0.5247061
4	0x3db49b80	0.08818722
5	0xbe89b200	-0.26893616
6	0x3d9415e0	0.07230735
7	0x3f6c5104	0.9231112
8	0x3ec3b410	0.38223314
9	0xbf1a0412	-0.6016246
10	0xbf58affa	-0.8464352
11	0xbf4d5f82	-0.8022386
12	0x3f659444	0.8967936
13	0xbf05757e	-0.52132404
14	0xbeba3afc	-0.36373127
15	0xbf446eac	-0.7673137
16	0x3ea54100	0.32276154
17	0xbf278fb4	-0.6545365
18	0x3e2b6dd8	0.16741121
19	0x3f1d0958	0.6134238
20	0xbe83ab80	-0.25716782
21	0xba275000	-0.00063824654
22	0x3e49d7a8	0.19711173
23	0x3d983630	0.074322104
24	0x3f33c758	0.7022605
25	0x3e8ff058	0.28113055
26	0x3e5739c0	0.21018124
27	0x3edf7840	0.4364643
28	0x3efb889c	0.49127662
29	0xbeeb98d8	-0.46015048
30	0x3f0490c6	0.51783407
31	0xbf406fc8	-0.75170565

net.0.bias f4 [32]
0	0x3f2a687a	0.6656567
1	0x3c7c6f00	0.015407324
2	0xbf7f5910	-0.99745274
3	0xbeba7d30	-0.36423635
4	0xbf5c89f2	-0.8614799
5	0xbe996808	-0.29962182
6	0x3e565a48	0.20932877
7	0x3e2d07a0	0.1689744
8	0xbf090818	-0.53527975
9	0xbebc8150	-0.36817408
10	0x3d86a840	0.0657506
11	0xbe479828	-0.19491637
12	0xbf623fda	-0.8837868
13	0x3e2f64a0	0.17128229
14	0x3de0b350	0.10971701
15	0xbf0b656e	-0.54451644
16	0x3ee62440	0.44949532
17	0x3ed17174	0.4090687
18	0xbf6b0d30	-0.91817
19	0x3f11d2ca	0.56962264
20	0x3f5a4b76	0.85271394
21	0xbf159934	-0.58436894
22	0x3e98bd38	0.29831862
23	0x3cc0d6c0	0.0235399
24	0xbf72b6ee	-0.9481038
25	0x3e8ba6ac	0.27275598
26	0xbf1491de	-0.58035076
27	0x3e18cb10	0.14921212
28	0x3e8232c0	0.25429344
29	0xbf3ab80a	-0.7293707
30	0xbee32f1c	-0.4437188
31	0x3f4c5cf4	0.79829335

net.2.weight f4 [32, 32]
0	0x3d9bd98e	0.07609855
1	0xbdf068c0	-0.117387295
2	0x3d1673dc	0.036731586
3	0x3e08506f	0.13311933
4	0x3e03694f	0.12833141
5	0xbe335651	-0.17513396
6	0x3d471934	0.04860802
7	0x3d99751a	0.074930385
8	0x3d2f5ea8	0.04281488
9	0xbdc29e91	-0.095029004
10	0x3d2704f4	0.040776208
11	0x3dd4f992	0.10399164
12	0x3e17203d	0.14758392
13	0x3c93c0d0	0.018036276
14	0xbe1ff4a4	-0.15620667
15	0x3d35bb34	0.044367984
16	0xbb17b640	-0.00231494
17	0xbe042b92	-0.12907246
18	0xbe07c3a5	-0.13258226
19	0x3db2beba	0.087277845
20	0x3e2ad00b	0.16680925
21	0x3d2e96e4	0.04262437
22	0x3e26145f	0.16218708
23	0xbe126eff	-0.14300154
24	0xbdcc8d5e	-0.09987901
25	0xbacf1400	-0.0015798807
26	0x3dd2b83e	0.10289048
27	0xbc54a6c0	-0.012979209
28	0x3e27d6cd	0.16390534
29	0x3e0552ad	0.1301982
30	0x3e0bfd3f	0.13670824
31	0xbddfe813	-0.109329365
32	0x3e032a07	0.12809001
33	0x3dddb16a	0.10824855
34	0x3d497a4c	0.049188897
35	0xbbaf0440	-0.005341083
36	0xbe0d4da3	-0.13799147
37	0xbc793770	-0.015210971
38	0xbd3a3b14	-0.045466498
39	0x3cc27120	0.023735583
40	0xbbb2f6e0	-0.0054615587
41	0x3e301249	0.17194475
42	0xbdb29488	-0.08719736
43	0x3d86e718	0.065870464
44	0x3d22352c	0.03960149
45	0xbde6cb0f	-0.11269199
46	0xbdf9a0da	-0.12188883
47	0x3dc00a8e	0.09377013
48	0x3db63632	0.08897056
49	0x3e15a09b	0.14612047
50	0x3e2f2861	0.17105247
51	0xbe26bdd9	-0.16283359
52	0xbe13d048	-0.14434922
53	0x3dffffee	0.124999866
54	0x3db30fb2	0.08743228
55	0x3e24cfdf	0.16094922
56	0xbe201e7e	-0.15636632
57	0xbdd1f924	-0.10252598
58	0x3e1d6da9	0.15373863
59	0x3df813d2	0.121131554
60	0xbbe1e5a0	-0.0068938285
61	0x3e09b1b9	0.13446702
62	0x3dcf4e6e	0.10122381
63	0xbbba5b60	-0.0056871623
64	0x3df0e3a2	0.117621675
65	0xbdcd5673	-0.100262545
66	0x3dd3a02a	0.10333283
67	0x3e14281b	0.14468424
68	0xbbd1a120	-0.0063973814
69	0x3ddc000a	0.10742195
70	0x3e1fd721	0.15609409
71	0xbd2fe400	-0.042942047
72	0xbc87ff68	-0.01660128
73	0xbd13a2b0	-0.036043823
74	0x3d97f0d6	0.07418983
75	0x3d884ee6	0.06655674
76	0xbd300440	-0.042972803
77	0xbd425f70	-0.047454298
78	0x3c7e0430	0.015503928
79	0xbd254fac	-0.040359184
80	0xbe29775a	-0.16549435
81	0x3ddf1632	0.10892905
82	0xbdd24421	-0.10266901
83	0xbd698290	-0.05700928
84	0x3e236513	0.15956526
85	0x3df92dc6	0.12166934
86	0x3e16e91d	0.14737363
87	0xbd29b358	-0.0414308
88	0xbd054278	-0.032534093
89	0xbda0b349	-0.07846696
90	0x3e210547	0.1572467
91	0xbd60cac8	-0.054880887
92	0x3e2780d9	0.16357745
93	0x3d944054	0.07238832
94	0x3d12cdac	0.035840675
95	0xbd83b200	-0.06430435
96	0xbd4126a8	-0.047156006
97	0xbdbb4d19	-0.091455646
98	0xbdcbeff0	-0.09957874
99	0xbdb0fa98	-0.08641547
100	0xbdb4583d	-0.088058926
101	0xbdaddcd0	-0.08489382
102	0xbd54845a	-0.051884033
103	0x3e19fabb	0.15037052
104	0xbdc958ba	-0.098313764
105	0x3e118471	0.14210679
106	0x3d969d46	0.07354216
107	0xbe292617	-0.16518436
108	0x3e3402d3	0.17579202
109	0x3e0f0d53	0.13969927
110	0xbdab7afd	-0.083730675
111	0x3d5a4e94	0.053297594
112	0x3da77aaa	0.08177693
113	0x3dff02c2	0.12451698
114	0x3cca57d8	0.02470009
115	0x3e2bac11	0.16764857
116	0x3e0ec041	0.13940527
117	0xbde93e2f	-0.11388814
118	0xbd267d98	-0.04064712
119	0xbe19e88b	-0.15030114
120	0xbdb6347c	-0.08896729
121	0xbd02f548	-0.0319722
122	0xbe28849e	-0.1645684
123	0x3d9dc3ee	0.07703386
124	0x3d6d4b48	0.057933122
125	0xbe0cc234	-0.13745958
126	0xbd27ad18	-0.04093656
127	0x3d03fd74	0.032224134
128	0x3e242929	0.16031326
129	0x3da48d16	0.080347225
130	0x3ccb7b10	0.024838954
131	0x3d3d5a60	0.046228766
132	0xbdacef3d	-0.084440686
133	0x3deec422	0.11658503
134	0xbbeb1b60	-0.007174894
135	0x3d701ee0	0.058623195
136	0x3dbb8d3a	0.09157796
137	0x3e063b6d	0.13108607
138	0x3d3df7e4	0.046378985
139	0x3e318f5d	0.17339845
140	0x3d044030	0.032287776
141	0xbd994a2f	-0.074848525
142	0xbe2f74bd	-0.17134376
143	0x3d303094	0.043015078
144	0x3daa8ed2	0.08328022
145	0x3e052a3b	0.13004391
146	0xbdebe57e	-0.115183815
147	0xbe2ed47c	-0.17073244
148	0x3de0c852	0.10975708
149	0x3dbf5abe	0.093434796
150	0x3dbad82a	0.09123261
151	0x3cf2b138	0.02962552
152	0xbb313540	-0.0027039796
153	0xbda973e5	-0.08274058
154	0x3dfec1ae	0.12439285
155	0x3e0dc3bd	0.138442
156	0x3d0627d8	0.03275284
157	0x3e14db6b	0.14536826
158	0xbcd3c4b8	-0.025850639
159	0xbe0fb801	-0.14035036
160	0x3e2545eb	0.16139953
161	0xbd05adfc	-0.032636628
162	0xbdaa92cb	-0.0832878
163	0xbd8eeffb	-0.069793664
164	0xbdd8045b	-0.10547706
165	0x3c545e30	0.012961909
166	0x3d41f5e0	0.047353625
167	0x3d3322cc	0.043734357
168	0xbe08950a	-0.13338104
169	0xbcdbe870	-0.026844233
170	0x3e2306d3	0.15920572
171	0xbe0bcc23	-0.1365209
172	0xbdf21e0d	-0.11822138
173	0x3e2babd5	0.16764767
174	0x3e12fab9	0.14353456
175	0xbd536260	-0.05160749
176	0xbd1ebd9c	-0.038755044
177	0x3e2b094b	0.16702764
178	0x3ddb790e	0.10716449
179	0xbc79a300	-0.015236616
180	0x3e0e5567	0.13899766
181	0x3e31fd85	0.17381866
182	0xbe2fd1fa	-0.17169943
183	0xbd80d280	-0.0629015
184	0x3dd10236	0.102055
185	0x3e16cb51	0.14725997
186	0x3dfbe14e	0.12298833
187	0x3dff1d6a	0.12456782
188	0x3da79b72	0.08183946
189	0xbbca39a0	-0.00617142
190	0xbe300197	-0.17188106
191	0xbe1783d7	-0.14796387
192	0x3e2be7a5	0.16787584
193	0x3e2c3df1	0.16820504
194	0xbd178124	-0.036988392
195	0xbd34c724	-0.044135228
196	0x3c733340	0.014843762
197	0xbd4d6420	-0.050144315
198	0xbdfb75da	-0.12278338
199	0x3bbfbb80	0.005851209
200	0x3e07a6c7	0.13247214
201	0xbe304599	-0.1721405
202	0xbd927d16	-0.071527645
203	0xbd306104	-0.04306127
204	0xbc1e4d30	-0.009661958
205	0x3df2a8aa	0.11848576
206	0xbd9ec2af	-0.07751977
207	0xbe0a047f	-0.13478278
208	0x3de9c0da	0.11413737
209	0x3de99d32	0.11406936
210	0x3c809bb0	0.015699238
211	0xbd9e844b	-0.07740077
212	0xbe2ff775	-0.17184241
213	0xbe052c84	-0.13005263
214	0x3e2ac331	0.16676022
215	0xbe1b4e15	-0.15166505
216	0xbe28038e	-0.16407606
217	0x3d96ed8e	0.07369529
218	0xbdd78a3a	-0.105244115
219	0xbd8088f0	-0.06276119
220	0x3de3da4e	0.11125623
221	0x3d90f376	0.070776865
222	0x3945cc00	0.0001886338
223	0x3de1c086	0.11023049
224	0xbd019430	-0.031635463
225	0x3d656aa0	0.05600989
226	0x3da6e6da	0.081495
227	0x3dadd092	0.08487047
228	0xbd11882c	-0.035530254
229	0x3d569490	0.052387774
230	0x3d9f4ba2	0.07778098
231	0xbda94b67	-0.08266335
232	0xbd356468	-0.044285208
233	0xbddfd9d2	-0.10930218
234	0x3e0f1661	0.1397338
235	0xbc6482b0	-0.013947174
236	0xbe272ebd	-0.16326423
237	0xbe19fd80	-0.15038109
238	0x3d6b5120	0.057450414
239	0x3e0c8cfb	0.13725655
240	0x3e26c4d7	0.16286026
241	0x3d0b8118	0.03405866
242	0xbd9f4b31	-0.077780135
243	0xbc0797b0	-0.008275911
244	0x3c2eff40	0.0106809735
245	0x3d70dfb0	0.058807075
246	0xbe18e473	-0.14930896
247	0x3d5e20d0	0.05423051
248	0xbe0208cf	-0.12698673
249	0x3d1271e0	0.03575313
250	0x3e13fe07	0.14452372
251	0xbcf914a0	-0.030405343
252	0xbe26110a	-0.16217437
253	0xbe1a1568	-0.15047228
254	0xbe1b0a5f	-0.15140675
255	0x3db28ece	0.08718644

net.2.bias f4 [32]
0	0xbd246ecc	-0.040144727
1	0x3d871fc0	0.06597853
2	0xbce53b00	-0.027982235
3	0x3e0931b3	0.13397865
4	0xbd7f7c5a	-0.06237445
5	0xbe04be5a	-0.12963238
6	0xbde265aa	-0.11054547
7	0xbd6e5f06	-0.05819609
8	0xbe227726	-0.15865764
9	0xbce6ddf0	-0.028182
10	0x3e0a45a1	0.13503124
11	0x3d0ccc04	0.034374252
12	0x3dcc47ce	0.09974633
13	0xbdde36e2	-0.10850312
14	0xbe32717c	-0.17426103
15	0xbd7fad94	-0.062421396
16	0x3d938d7a	0.07204719
17	0x3d5db984	0.054132
18	0x3e308583	0.1723843
19	0xbe0528dc	-0.13003868
20	0xbd5fb3f0	-0.05461496
21	0xbe271d97	-0.16319881
22	0x3deb8462	0.114998594
23	0x3e13f80b	0.1445009
24	0x3daf284e	0.085526094
25	0x3bfb58a0	0.007670477
26	0x38b96800	8.840859e-05
27	0xbc12e750	-0.008966282
28	0xbced9270	-0.02900049
29	0x3e3500a5	0.17676027
30	0xbdfc68a2	-0.123246446
31	0xbddb3379	-0.10703177

net.4.weight f4 [32, 32]
0	0x3c3d8790	0.011567965
1	0x3d804720	0.06263566
2	0xbe02e16c	-0.12781304
3	0xbe2c6f9c	-0.1683945
4	0x3d343944	0.043999925
5	0xbe18040f	-0.14845298
6	0xbc397160	-0.011318535
7	0x3deca27a	0.115544274
8	0xbe2add6e	-0.16686031
9	0xbdbca85b	-0.09211799
10	0x3d69c710	0.057074606
11	0xbd478324	-0.04870905
12	0x3e26383b	0.16232388
13	0xbd4afc7c	-0.049557194
14	0x3da2c9b2	0.079486266
15	0x3d369a14	0.044580534
16	0x3c4cd4a0	0.012501866
17	0x3d98bf2a	0.07458337
18	0xbdc667db	-0.096877776
19	0xbca83518	-0.02053313
20	0xbe2e193e	-0.17001817
21	0xbde24dd8	-0.11050004
22	0x3d192940	0.037392855
23	0xbdd490c5	-0.10379175
24	0x3d21710c	0.03941445
25	0x3d2760a8	0.040863663
26	0xbdf400cc	-0.119142145
27	0x3ce14828	0.027500227
28	0x3c93e5a0	0.01805383
29	0x3df3ab7a	0.11897941
30	0xbcac9810	-0.021068603
31	0x3cd6bd08	0.026213184
32	0xbdc4e317	-0.096136265
33	0x3d9664f2	0.073434725
34	0xbca32680	-0.01991582
35	0x3e02ed25	0.12785776
36	0xbe263f3b	-0.16235058
37	0xb9d77200	-0.00041092932
38	0x3de75dc2	0.1129718
39	0x3e2d2d29	0.16911758
40	0xbe1b0d76	-0.15141854
41	0x3dd65ec6	0.10467295
42	0xbe3332b6	-0.17499813
43	0x3dfc070a	0.1230603
44	0x3d2bdb14	0.041956976
45	0x3ca89d68	0.02058287
46	0x3d1a72e0	0.03770721
47	0xbdf634ba	-0.120217755
48	0x3b198900	0.0023427606
49	0x3e30cad7	0.17264877
50	0xbe1775e5	-0.14791067
51	0x3dd18a5e	0.102314696
52	0x3d37f6b0	0.044912994
53	0xbe094057	-0.1340345
54	0x3dc50826	0.09620695
55	0xbdab1d44	-0.08355191
56	0x3c1f8cd0	0.009738162
57	0xbddd62e8	-0.108098805
58	0x3df7363e	0.12070893
59	0x3e122fab	0.14275996
60	0x3d8593b2	0.06522311
61	0xbdea1656	-0.114300415
62	0xbc93ec40	-0.018056989
63	0x3d953760	0.072859526
64	0xbd9d434a	-0.0767885
65	0xbd6b4dc4	-0.05744721
66	0x3e0663a7	0.13123952
67	0xbe2a9d76	-0.16661629
68	0xbe1399f6	-0.144142
69	0x3ddcd6ba	0.10783143
70	0xbda2974f	-0.07939016
71	0xbbfdbda0	-0.0077435523
72	0xbe2a6e2b	-0.16643588
73	0x3e29f92b	0.16598956
74	0x3d4021a8	0.046907097
75	0x3d855438	0.06510204
76	0x3c7751d0	0.015095189
77	0xbdb1d9fc	-0.08684155
78	0xbdec3568	-0.11533624
79	0xbe27fda6	-0.16405353
80	0x3cf41878	0.029796824
81	0x3d217244	0.039415613
82	0x3c3fa2b0	0.011696503
83	0xbd63aa10	-0.055582106
84	0x3e1a762f	0.15084146
85	0xbdd5c93f	-0.10438775
86	0x3dffb4b6	0.1248564
87	0x3d16b620	0.03679478
88	0x3e0b7081	0.13617136
89	0x3d7d459c	0.061833963
90	0xbd315f90	-0.043304026
91	0x3d051850	0.03249389
92	0x3dfe8f9e	0.124297366
93	0x3e0bebb5	0.13664134
94	0xbe237255	-0.15961583
95	0xbdee7257	-0.11642902
96	0xbc649470	-0.013951406
97	0x3c184530	0.009293839
98	0x3decc3c2	0.11560775
99	0xbd9dfbab	-0.077140175
100	0xbd1237ac	-0.035697624
101	0x3d1e4b90	0.03864628
102	0x3dff458e	0.124644384
103	0x3d823f74	0.06359759
104	0x3e02d353	0.12775926
105	0xbd53780c	-0.051628157
106	0x3c066860	0.008203596
107	0xbdab5ba8	-0.083670914
108	0x3e09bb47	0.13450347
109	0x3d84afe0	0.06478858
110	0x3e12b0cd	0.14325257
111	0xbd8c9aa1	-0.068654306
112	0x3dc1dbaa	0.09465726
113	0x3e0fb12f	0.14032434
114	0x3caddb58	0.021222755
115	0xbddca479	-0.10773558
116	0x3cb40638	0.021975622
117	0xbc6ec0a0	-0.014572293
118	0x3d64f678	0.055899113
119	0xbdc5c2f2	-0.096563235
120	0xbdcbb5b9	-0.0994677
121	0xbe17fe5d	-0.14843126
122	0x3e1d040d	0.15333577
123	0xbd29455c	-0.041325912
124	0xbd8fa563	-0.07013967
125	0x3d9aced6	0.07558982
126	0x3cb02528	0.021502092
127	0xbe14f4e0	-0.14546537
128	0x3d4e43f4	0.050357774
129	0x3e0d9797	0.13827358
130	0x3e242fe5	0.16033895
131	0x3dbb0746	0.09132247
132	0x3d748b7c	0.059703335
133	0xbd3156dc	-0.043295726
134	0x3d9ab3d6	0.07553832
135	0xbe049019	-0.12945594
136	0xbe03cdc7	-0.12871467
137	0x3d94aece	0.07259904
138	0x3c6a7760	0.014310688
139	0x3e1eb03d	0.15496917
140	0x3baefe60	0.0053403825
141	0x3dd9846e	0.10620962
142	0xbdef4cdc	-0.11684582
143	0x3cf494e0	0.029856145
144	0x3df7f596	0.12107389
145	0x3df7ef8a	0.12106235
146	0x3dc5f0e2	0.096650854
147	0xbd8b6929	-0.06807167
148	0xbce8b188	-0.028404966
149	0xbe16f29c	-0.14740986
150	0xbe2905d9	-0.16506137
151	0x3bc4c160	0.0060044974
152	0x3d7312c0	0.059344053
153	0xbdd450b6	-0.10366957
154	0x3db1b62e	0.08677326
155	0x3e1ded6b	0.15422599
156	0xbe156335	-0.14588626
157	0xbdde1658	-0.108441055
158	0x3d83f612	0.064434186
159	0xbcadb5d0	-0.021204859
160	0x3d8624b4	0.06549969
161	0xbc66b320	-0.014080793
162	0x3d9d7bb2	0.07689609
163	0x3e2a1a51	0.16611601
164	0xbdd77c15	-0.10521714
165	0x3d637be8	0.055538088
166	0xbc4325e0	-0.011910886
167	0x3e32e7cf	0.1747124
168	0xbcc34750	-0.023837715
169	0x3dd5e866	0.10444717
170	0x3da1b7aa	0.07896359
171	0xbe0b13d6	-0.13581786
172	0xbdb9c061	-0.090698965
173	0x3ddab6c6	0.106793925
174	0xbe336f2a	-0.17522874
175	0xbe181e31	-0.14855267
176	0xbe054781	-0.13015558
177	0x3e12914b	0.14313237
178	0xbbb72a40	-0.0055897534
179	0xbdb94749	-0.090468
180	0xbd968407	-0.07349401
181	0xbe126f0e	-0.14300177
182	0xbd0d5194	-0.034501627
183	0x3cc6a410	0.024248153
184	0xbdd48192	-0.10376276
185	0xbe1d17d6	-0.15341124
186	0xbe1e4162	-0.15454629
187	0x3dc31106	0.09524731
188	0xbd1fa178	-0.038972348
189	0xbd961990	-0.073290944
190	0x3dbc29fe	0.09187697
191	0x3e2f14c7	0.1709777
192	0xbc8fbe68	-0.017546847
193	0xbe06ec54	-0.1317609
194	0x3e023d83	0.12718777
195	0x3d137be0	0.03600681
196	0xbe2b6326	-0.16737041
197	0x3d50bac0	0.05095935
198	0x3e2f6649	0.17128862
199	0x3dfa15ca	0.12211187
200	0xbd993846	-0.074814364
201	0xbdc8339b	-0.09775468
202	0x3e1ca89d	0.15298696
203	0xbe18a9aa	-0.14908472
204	0xbddead5b	-0.10872909
205	0xbbaaa500	-0.005207658
206	0x3e21482b	0.15750186
207	0xbd1aa058	-0.037750572
208	0x3de19e2a	0.110164955
209	0x3d9123c0	0.07086897
210	0x3de9e176	0.114199564
211	0x3ce576b8	0.028010711
212	0x3e21d51d	0.15803953
213	0xbe10b46a	-0.14131323
214	0xbd8bd0b5	-0.06826917
215	0xbc8b61a8	-0.01701434
216	0xbdd1b044	-0.10238698
217	0x3defcfce	0.117095575
218	0xbc97df38	-0.018539056
219	0x3d5b0ad8	0.05347714
220	0xbdaa54ab	-0.083169304
221	0xbda71514	-0.08158317
222	0x3dfc82c2	0.123296276
223	0xbd966fbe	-0.07345532
224	0x3dc442a6	0.09583025
225	0xbdac1222	-0.08401896
226	0xbdf98872	-0.12184228
227	0x3cbba198	0.022904202
228	0x3cb1be88	0.021697298
229	0xbdaef983	-0.08543684
230	0xbd9de962	-0.0771053
231	0xbe2c9157	-0.16852318
232	0x3e2ffd09	0.17186369
233	0x3e20f74f	0.1571934
234	0xbdd2db21	-0.10295702
235	0x3e22e425	0.15907343
236	0x3d08b2f4	0.033373788
237	0x3e174057	0.14770637
238	0xbd85b06c	-0.065277904
239	0x3d50c174	0.05096574
240	0x3cab6130	0.020920366
241	0xbcdbe300	-0.02684164
242	0xbd3024d0	-0.043003857
243	0x3d655fa0	0.0559994
244	0x3e1bfdaf	0.15233491
245	0x3e240dd3	0.16020899
246	0x3d167e28	0.036741406
247	0x3d878d60	0.06618762
248	0x3d5341b0	0.051576316
249	0xbbd9e960	-0.006650135
250	0xbd4a02bc	-0.049319014
251	0x3df5766a	0.11985476
252	0x3db4fa3a	0.088367894
253	0xbd3396a4	-0.043844834
254	0xbd53a930	-0.05167502
255	0x3d0c8bd4	0.034313038

net.4.bias f4 [32]
0	0xbc6ee920	-0.0145819485
1	0x3bd2a540	0.0064283907
2	0x3d0dec50	0.034649193
3	0xbcbf55e0	-0.023356378
4	0xbd36c31c	-0.044619665
5	0xbd82db04	-0.0638943
6	0xbdda1df8	-0.10650247
7	0x3c954da0	0.018225491
8	0xbdc761c3	-0.097354434
9	0xbd9c032e	-0.07617794
10	0x3ca12778	0.01967214
11	0xbde11a21	-0.10991312
12	0xbde5a621	-0.11213327
13	0xbe2293a0	-0.15876627
14	0xbdc77e6f	-0.09740912
15	0xbcf50e70	-0.02991411
16	0x3d91cbb2	0.0711893
17	0xbd8cccde	-0.06875013
18	0xbe29fc57	-0.16600166
19	0xbd85301a	-0.06503315
20	0x3cde1ad8	0.02711241
21	0xbc0e4850	-0.008684233
22	0x3d032288	0.032015353
23	0x3e15353d	0.1457109
24	0x3e1d6ef9	0.15374364
25	0x3dfc145e	0.12308572
26	0x3c11c810	0.008897796
27	0x3e0a4621	0.13503315
28	0x3e272315	0.16321976
29	0xbdc26f64	-0.09493902
30	0xbe17164e	-0.14754602
31	0xbdfe960e	-0.124309644

net.6.weight f4 [16, 32]
0	0xbde0e92f	-0.10981976
1	0xbd107878	-0.035271138
2	0x3e006073	0.12536792
3	0x3e02ac01	0.12760927
4	0x3da12f76	0.078703806
5	0x3de835ce	0.113383874
6	0xbc80f920	-0.015743792
7	0x3cbae700	0.022815228
8	0xbd535dd4	-0.051603153
9	0xbe06f05f	-0.13177632
10	0x3cdb7048	0.026786938
11	0xbe2dd999	-0.16977538
12	0x3dd16836	0.10224955
13	0x3d0b7600	0.03404808
14	0xbe09a6ca	-0.13442531
15	0x3de94e72	0.113919154
16	0x3c88df88	0.01670815
17	0xbdd59e2e	-0.10430561
18	0xbcc6ca90	-0.024266511
19	0x3e0bd375	0.13654883
20	0x3e19185b	0.14950697
21	0x3dfa271a	0.12214489
22	0x3e1c66bb	0.15273564
23	0x3daada6a	0.083424404
24	0x3d6d510c	0.05793862
25	0xbe073752	-0.13204697
26	0xbdd61474	-0.1045312
27	0x3e28f493	0.16499548
28	0x3dae378a	0.08506687
29	0x3dfab5a2	0.12241675
30	0xbd34ebc8	-0.04417017
31	0xbe008a98	-0.1255287
32	0x3e2d4359	0.16920222
33	0x3d85ef32	0.065397635
34	0x3d879d5c	0.06621811
35	0xbde10fe3	-0.10989358
36	0x3dd46cea	0.10372336
37	0x3dbdfca2	0.092767015
38	0xbd7b2b14	-0.06132038
39	0xbe111d2a	-0.14171281
40	0xbded4e3d	-0.115871884
41	0x3ad59000	0.0016293526
42	0x3de163ce	0.11005364
43	0xbe11d710	-0.14242196
44	0xbd03e570	-0.03220123
45	0x3df480be	0.11938618
46	0x3d6c83e4	0.05774297
47	0xbe137ea2	-0.14403775
48	0x3b593a00	0.0033146143
49	0xbe1764ed	-0.14784594
50	0xbd69d074	-0.057083562
51	0x3e20d11d	0.1570477
52	0xbe1b87a8	-0.15188468
53	0x3e07bcc5	0.13255604
54	0xbd3918b0	-0.04518956
55	0x3d03c104	0.032166496
56	0x3b7cea00	0.0038591623
57	0xbd832798	-0.06404036
58	0x3e1ab1b7	0.15106855
59	0xbd391cb4	-0.04519339
60	0x3e06e46f	0.13173078
61	0x3da5dfca	0.08099325
62	0x3e103d6d	0.14085932
63	0xbd819fba	-0.063292935
64	0x3dfb0142	0.12256099
65	0x3d0bce50	0.0341323
66	0xbdd0f50f	-0.10202991
67	0xbe0a9baa	-0.13535944
68	0x3ce513d0	0.027963549
69	0xbd172b84	-0.036906734
70	0xbd52ae90	-0.051436007
71	0x3dcaa452	0.09894623
72	0xbd9088e0	-0.07057357
73	0xbdfe7d6a	-0.124262646
74	0x3e0031c1	0.1251898
75	0x3d70d198	0.058793634
76	0xbcb33ea0	-0.021880448
77	0x3e268749	0.16262545
78	0xbd2b6c98	-0.04185161
79	0x3d8c0f54	0.06838861
80	0xbdb42943	-0.087969325
81	0xbe0e1765	-0.13876112
82	0x3c9da2f8	0.019242749
83	0x3d549790	0.051902354
84	0x3da9cada	0.08290644
85	0xbe0ad2cd	-0.13556977
86	0xbda74eb2	-0.08169307
87	0xbda8fd61	-0.08251453
88	0x3e13da85	0.14438827
89	0x3b649ac0	0.0034882277
90	0x3d4d19a8	0.050073296
91	0x3e3260b7	0.17419706
92	0xbc783410	-0.015149131
93	0x3e2ee7ad	0.17080565
94	0xbe146ee7	-0.14495431
95	0xbd19a1d4	-0.037507847
96	0x3e030c9b	0.12797777
97	0x3dd1b84a	0.102402285
98	0x3cb3e890	0.02196148
99	0xbdb1a877	-0.0867471
100	0x3d890216	0.06689851
101	0x3e193133	0.14960174
102	0x3d3e6878	0.046486348
103	0x3e270329	0.16309799
104	0x3d60cdd4	0.054883793
105	0xbc764200	-0.015030384
106	0xbcb57958	-0.022152588
107	0xbcae40f8	-0.021271214
108	0xbcbd2d28	-0.023092821
109	0xbc63d970	-0.013906822
110	0x3c754180	0.01496923
111	0xbd28f0a4	-0.041245118
112	0x3da5d38e	0.080969915
113	0xbe13c798	-0.14431608
114	0x3de49dca	0.111629084
115	0xbd45ca08	-0.048288375
116	0x3daa35ce	0.08311044
117	0x3e1dc38b	0.15406625
118	0x3ca44200	0.020051003
119	0xbd46bd30	-0.048520267
120	0xbe1b4fe1	-0.1516719
121	0xbe133aaa	-0.14377847
122	0xbba57da0	-0.005050376
123	0x3dc782de	0.09741758
124	0xbd3a0398	-0.045413584
125	0xbe09251c	-0.13393062
126	0x3d1ac0bc	0.037781462
127	0x3c267d30	0.010161683
128	0xbd60314c	-0.054734513
129	0xbd7cd3de	-0.06172549
130	0x3da02ce6	0.07821064
131	0xbce20bf0	-0.027593583
132	0xbd8067ac	-0.06269774
133	0xbdbebcd4	-0.0931336
134	0xbd960cd9	-0.07326669
135	0xbd93e980	-0.07222271
136	0x3dffb9f6	0.12486641
137	0x3dc5f222	0.09665324
138	0xbe0ba516	-0.13637194
139	0x3e03e095	0.1287864
140	0xbda9afde	-0.08285497
141	0x3dee6b0a	0.1164151
142	0x3cda6320	0.026658595
143	0x3d1a22a8	0.037630707
144	0xbe31c00b	-0.17358415
145	0xbe28f420	-0.16499376
146	0xbe02daa4	-0.12778717
147	0x3d9a25c2	0.07526733
148	0xbe1841b7	-0.14868818
149	0xbe100910	-0.14065957
150	0x3e158607	0.14601909
151	0x3c1f09a0	0.009706885
152	0x3d79a218	0.0609456
153	0xbe216460	-0.15760946
154	0xbd053050	-0.032516778
155	0x3e17e8bd	0.14834876
156	0xbd671fd2	-0.05642683
157	0xbd390494	-0.04517038
158	0x3da827b6	0.08210699
159	0xbd4a5a38	-0.049402446
160	0xbe1da3dc	-0.15394539
161	0x3e266b27	0.16251813
162	0x3c785800	0.0151577
163	0xbd37da04	-0.04488565
164	0xbd4d4274	-0.050112203
165	0xbdd6dd02	-0.10491373
166	0x3a602700	0.00085507333
167	0xbd995f71	-0.07488907
168	0xbd368a08	-0.04456523
169	0xbe2ffaa4	-0.17185456
170	0x3d8e6be2	0.06954171
171	0x3bea78e0	0.0071555227
172	0xbd36e014	-0.04464729
173	0x3e08387f	0.13302802
174	0xbdee5088	-0.11636454
175	0xbd8ae488	-0.0678187
176	0x3d9beb36	0.07613222
177	0x3e0c66e5	0.13711126
178	0x3d8eff98	0.069823444
179	0x3d65c83c	0.05609916
180	0xbd9bd439	-0.07608838
181	0xbe34e43c	-0.1766519
182	0x3e09caa3	0.13456206
183	0xbd83286a	-0.06404193
184	0x3dd5dee2	0.10442902
185	0xbdf91010	-0.12161267
186	0xbcd42cf8	-0.025900349
187	0x3e049813	0.12948637
188	0x3ccc72d0	0.02495709
189	0xbd3195b4	-0.04335566
190	0x3e2c596f	0.16830991
191	0xbbd5c440	-0.006523639
192	0xbcae91d8	-0.021309778
193	0xbe33c141	-0.1755419
194	0xbe223b64	-0.15842968
195	0x3e308961	0.17239906
196	0xbd170fb8	-0.036880225
197	0xbd5b5442	-0.05354715
198	0x3d50f874	0.051018193
199	0xbe19a94b	-0.15005986
200	0xbd422a4c	-0.04740362
201	0x3dca77da	0.09886141
202	0x3e25684d	0.16153069
203	0x3d13092c	0.03589742
204	0x3e2c7c31	0.1684425
205	0xbb6d43c0	-0.0036203712
206	0xbda37e50	-0.079830766
207	0xbe311f0b	-0.17296998
208	0xbd918bee	-0.071067676
209	0x3d284d5c	0.0410894
210	0x3d9b84da	0.07593699
211	0xbe1fc022	-0.15600637
212	0x3d6a0bc4	0.057140127
213	0x3e084f13	0.13311414
214	0xbe1971de	-0.14984843
215	0xbe02a3b2	-0.12757757
216	0xbe015dca	-0.12633434
217	0x3deed4de	0.11661695
218	0xbdd7fb3e	-0.105459675
219	0x3e318cf9	0.17338933
220	0x3e23c2db	0.159923
221	0x3c4088d0	0.011751369
222	0x3dfe69a2	0.124224916
223	0xbcde8df8	-0.027167305
224	0x3e0e538b	0.13899057
225	0xbd94cace	-0.072652444
226	0x3c196940	0.009363472
227	0xbdc19c7f	-0.094536774
228	0x3d807ef0	0.062742114
229	0x3d9804c2	0.074227825
230	0x3d53850c	0.051640555
231	0x3ce2ace8	0.027670339
232	0x3d7b43e4	0.061344042
233	0x3c625e40	0.013816416
234	0x3e209ab3	0.15684013
235	0xbe18656c	-0.1488244
236	0x3e12ec93	0.14348058
237	0xbc89a520	-0.01680237
238	0xbdab974c	-0.08378467
239	0x3df90c12	0.12160505
240	0x3e21f8ff	0.1581764
241	0xbd519a50	-0.051172554
242	0x3e015d2f	0.12633203
243	0x3d7316d0	0.059347928
244	0x3e330843	0.1748362
245	0xbbf22080	-0.007389128
246	0xbdc05972	-0.0939206
247	0xbd97e27f	-0.074162476
248	0xbcc6af60	-0.024253547
249	0xbe07a27e	-0.1324558
250	0xbe270d92	-0.1631377
251	0x3d3e4d14	0.046460226
252	0xbd7b2494	-0.06131418
253	0xbe040ad2	-0.12894753
254	0x3d5b4dd8	0.053541034
255	0xbe1b33ba	-0.15156451

net.6.bias f4 [16]
0	0x3dd6c8da	0.10487528
1	0xbdd25f62	-0.10272099
2	0x3e0223e9	0.12709011
3	0x3dd8ad36	0.10579912
4	0x3d7e75d0	0.062124074
5	0x3dbd176a	0.092329815
6	0x3d092cb8	0.033489913
7	0x3de9b52e	0.114115104
8	0x3d58294c	0.05277376
9	0x3dea88f6	0.114519045
10	0x3d065bf4	0.032802537
11	0xbe04b78a	-0.1296064
12	0xbd812fc8	-0.06307942
13	0xbdd5f2a8	-0.10446674
14	0xbe2f0716	-0.17092547
15	0xbd3266b8	-0.04355499

net.8.weight f4 [881, 16]
0	0x3e5e1bfc	0.21690363
1	0xbd27a798	-0.040931314
2	0x3a77ba00	0.00094500184
3	0xbdb68b84	-0.08913329
4	0xbe149a54	-0.14511997
5	0x3dae1b9c	0.0850136
6	0x3e1ffb6e	0.15623257
7	0x3d1f6968	0.038918883
8	0xbdc58654	-0.09644762
9	0xbe6deb16	-0.2323421
10	0x3d529728	0.051413685
11	0xbc4c3340	-0.012463391
12	0x3e45c5b2	0.19313696
13	0x3dfbc83c	0.12294051
14	0xbcf29ee0	-0.029616773
15	0xbe32bcc4	-0.17454821
16	0x3ddcc238	0.10779232
17	0xbe5d48e2	-0.21609834
18	0xbe3a3848	-0.18185532
19	0x3e2a6888	0.16641438
20	0xbd981270	-0.07425392
21	0x3e712af8	0.23551548
22	0x3e7336ac	0.23751324
23	0x3d9615b4	0.07328358
24	0x3e00ff36	0.12597355
25	0x3e569006	0.20953378
26	0x3db99c7c	0.0906305
27	0xbdc60f08	-0.09670836
28	0xbd3d3040	-0.046188593
29	0x3e013516	0.12617907
30	0xbc8384e0	-0.01605457
31	0x3e26f154	0.16302997
32	0xb8e5d000	-0.00010958314
33	0x3e55c69c	0.20876545
34	0xbe599932	-0.21249846
35	0x3dd74054	0.105103165
36	0xbc4a5540	-0.012349427
37	0xbe6ae6ea	-0.22939649
38	0x3cb63ba0	0.022245228
39	0xbd215388	-0.039386302
40	0xbe5940ca	-0.21216121
41	0xbcef5cd0	-0.029219061
42	0x3e4d0792	0.20022419
43	0x3c9168e0	0.017750204
44	0xbdb5d988	-0.088793814
45	0x3ddeeda8	0.10885173
46	0xbe2ca3ba	-0.16859332
47	0xbe24e30c	-0.16102237
48	0xbb43ac00	-0.0029857159
49	0x3e0ad0ac	0.13556165
50	0x3d098498	0.033573717
51	0x3d49bb50	0.0492509
52	0xbe574fe6	-0.21026573
53	0xbe19fb6a	-0.15037313
54	0x3dc17118	0.09445399
55	0x3e5cdeae	0.2156932
56	0xbe5adfca	-0.21374431
57	0x3ccc4900	0.024937153
58	0x3e3fa57a	0.18715468
59	0xb992c400	-0.0002799332
60	0xbd914398	-0.070929706
61	0x3dbda1ac	0.09259352
62	0x3d1dbd50	0.03851062
63	0x3d00eb48	0.03147438
64	0xbd892bd4	-0.06697813
65	0xbe5aa520	-0.21352053
66	0x3e2f50da	0.17120686
67	0xbe34e73a	-0.17666331
68	0x3e5e0354	0.21680957
69	0x3dcc108c	0.099640936
70	0x3e582450	0.21107602
71	0xbe2121f2	-0.15735605
72	0x3e278ad2	0.1636155
73	0x3de44f8c	0.11147985
74	0xbe70eadc	-0.23527092
75	0xbe6b7d46	-0.22997007
76	0x3e4779f2	0.19480112
77	0x3d5e8420	0.054325223
78	0xbceb5960	-0.02872914
79	0xbd511140	-0.05104184
80	0xbccdcc00	-0.025121689
81	0x3e49f5e8	0.19722712
82	0x3d6d0938	0.05787012
83	0xbda39664	-0.07987669
84	0xbcfe2a50	-0.031026036
85	0x3c912630	0.017718405
86	0xbe6ac336	-0.2292603
87	0xbe0e6cae	-0.13908646
88	0x3c6aea00	0.0143380165
89	0xbdef41b8	-0.11682457
90	0xbd1ef478	-0.038807362
91	0x3d77ff20	0.06054604
92	0x3dc34854	0.0953528
93	0xbda67bf8	-0.08129114
94	0xbe12f7f6	-0.14352402
95	0xbe1e7d0c	-0.15477389
96	0xbc704880	-0.014665723
97	0xbcde6420	-0.027147353
98	0x3b014300	0.0019723773
99	0x3e3753e2	0.17903093
100	0x3d4729b0	0.04862374
101	0xbd96dcc0	-0.073663235
102	0xbb022880	-0.0019860566
103	0x3e065b8e	0.13120863
104	0xbe0d3c8a	-0.13792625
105	0x3e0e9eae	0.13927719
106	0x3e44c8e2	0.19217256
107	0xbde4b410	-0.11167157
108	0xbe4305c4	-0.19045168
109	0xbe2338fa	-0.15939704
110	0x3e4b7a5c	0.19870895
111	0xbdaa8ee4	-0.083280355
112	0x3d930e04	0.07180408
113	0xbdc59214	-0.09647003
114	0xbc75a880	-0.014993787
115	0xbe1ecef0	-0.15508628
116	0xbe3bba62	-0.18332818
117	0x3e0f2c96	0.13981852
118	0x3d2c4260	0.042055488
119	0x3daf2650	0.085522294
120	0xbd574558	-0.052556366
121	0xbd76c0f0	-0.060242593
122	0xbe44618a	-0.19177833
123	0x3e485f60	0.19567633
124	0xbcfad1b0	-0.030617565
125	0xbdcd8784	-0.10035613
126	0x3e757b2c	0.23972768
127	0x3d17ad50	0.037030518
128	0xbe48c6d2	-0.19607094
129	0xbd823534	-0.06357804
130	0x3dbd5098	0.09243888
131	0x3d28d658	0.04122004
132	0xbe445280	-0.19172096
133	0x3de39c3c	0.11113784
134	0xbac8e200	-0.0015326142
135	0x3e26b0ea	0.16278425
136	0xbd977760	-0.07395816
137	0x3d346c58	0.044048637
138	0x3d62d300	0.055377007
139	0xbd5d9940	-0.05410123
140	0xbe68011c	-0.22656673
141	0xbd343f48	-0.044005662
142	0x3df1e690	0.118115544
143	0xbc0cfb20	-0.008604795
144	0xbc95ffc0	-0.018310428
145	0xbccbb590	-0.02486685
146	0xbd2f5140	-0.042802095
147	0x3ddf5350	0.109045625
148	0x3d97f748	0.07420212
149	0x3b5c7d00	0.0033643842
150	0xbde69af4	-0.11260024
151	0xbc995650	-0.018717915
152	0xbdd990fc	-0.10623357
153	0xbe489bd0	-0.19590688
154	0x3c61f120	0.013790399
155	0x3dc4c6ec	0.09608254
156	0xbba2c740	-0.0049676
157	0x3e6a2156	0.22864279
158	0x3e7cd36a	0.24690023
159	0x3c6e9c80	0.01456368
160	0x3e2b0452	0.16700867
161	0x3e4b1b68	0.19834673
162	0x3e79c926	0.24393138
163	0x3dc08c14	0.09401718
164	0x3d5d87c8	0.05408457
165	0x3e183cca	0.14866939
166	0xbe4564e4	-0.19276768
167	0xbdc05590	-0.0939132
168	0x3e4ce6b4	0.20009881
169	0xbe3647b2	-0.17800787
170	0xbe24645e	-0.16053912
171	0xbe5af3c0	-0.21382046
172	0x3e55b924	0.20871407
173	0xbdcf4628	-0.10120803
174	0xbe5bf048	-0.21478379
175	0x3d7ced18	0.061749548
176	0xbda05b44	-0.078299075
177	0x3bb73000	0.005590439
178	0x3e20bd20	0.15697145
179	0x3cb8b230	0.022545904
180	0x3e0a15fe	0.13484952
181	0xbe6999bc	-0.22812551
182	0xbe36c942	-0.17850211
183	0xbd023110	-0.03178507
184	0x3da1dddc	0.079036444
185	0x3cf3f8a0	0.02978164
186	0xbe10db10	-0.14146066
187	0x3c890f80	0.016731024
188	0x3e0b005e	0.13574359
189	0x3dd9f454	0.10642305
190	0xbd7f6c00	-0.062358856
191	0xbdac4480	-0.08411503
192	0xbe003604	-0.12520605
193	0xbe57e064	-0.21081692
194	0x3db32744	0.08747724
195	0xbbf173c0	-0.007368535
196	0xbe48da9a	-0.1961464
197	0xbe016510	-0.12636209
198	0xbe1294d4	-0.14314586
199	0x3e20eabe	0.15714547
200	0x3e12ed0a	0.14348236
201	0x3d93f7fc	0.07225034
202	0x3da32ffc	0.07968137
203	0xbd1fedf0	-0.039045274
204	0xbe0e3e5e	-0.13890979
205	0x3d949794	0.07255474
206	0x3e5462e0	0.20740843
207	0x3e6c436e	0.23072597
208	0xbc488780	-0.012239337
209	0x3d26a100	0.040680885
210	0xbe79e536	-0.24403843
211	0xbe6d51a4	-0.23175675
212	0xbd6abf38	-0.057311267
213	0x3d47abe0	0.048747897
214	0xbe67a2ac	-0.22620648
215	0x3c3d6480	0.011559606
216	0x3e72bec2	0.23705581
217	0x3e75db06	0.24009332
218	0xbe7379da	-0.23776951
219	0x3d71b178	0.059007138
220	0xbe36fc2e	-0.17869636
221	0xbe0a5fc4	-0.13513094
222	0xbd4bf9d8	-0.049798816
223	0xbe1c7688	-0.15279591
224	0x3d126230	0.03573817
225	0x3d7d86a8	0.061895996
226	0x3e49629a	0.1966652
227	0x3e2c5328	0.16828597
228	0xbdddbba0	-0.10826802
229	0x3da5e9fc	0.081012696
230	0x3e0a2c32	0.13493422
231	0xbd167bb8	-0.03673908
232	0xbe4e7eca	-0.20165554
233	0x3c64c580	0.013963103
234	0xbdb55870	-0.08854759
235	0xbd376328	-0.044772297
236	0x3e517098	0.20453107
237	0x3d95b8d0	0.07310641
238	0x3d41db10	0.047328055
239	0x3e77c6b6	0.24196896
240	0x3e5e77c6	0.21725377
241	0xbe26c58e	-0.16286299
242	0xbe08b678	-0.13350856
243	0x3c82d8f0	0.015972584
244	0xbe072680	-0.1319828
245	0xbd9b98d0	-0.07597506
246	0xbd6faa48	-0.058512002
247	0x3e21ae7a	0.15789214
248	0x3d1c1dd0	0.03811437
249	0xbe742ce8	-0.23845255
250	0x3d8db5bc	0.06919429
251	0xbe766bbe	-0.24064538
252	0xbe0af78c	-0.13570994
253	0x3e45b5dc	0.19307655
254	0x3e5659ea	0.20932737
255	0xbda2b31c	-0.07944319

net.8.bias f4 [881]
0	0xbe262ccc	-0.16228026
1	0xbe4c9690	-0.1997931
2	0xbde36b4c	-0.1110445
3	0xbcf068d0	-0.029346853
4	0xbe29d2ba	-0.16584292
5	0xbe3add96	-0.18248591
6	0x3dd69cf8	0.10479158
7	0x3bfb9180	0.007677257
8	0x3d8bc6e8	0.06825048
9	0x3d4b85b8	0.04968807
10	0x3defa6d8	0.11701745
11	0x3d209690	0.039206088
12	0x3da5eb18	0.08101481
13	0x3db36da4	0.08761147
14	0x3dcd329c	0.100194186
15	0x3e674e70	0.22588515
16	0x3c1f4560	0.00972113
17	0x3dc94c20	0.09828973
18	0x3d919424	0.07108334
19	0x3d17f4d8	0.037098736
20	0x3d3537e0	0.04424274
21	0xbe798a3c	-0.24369138
22	0x3daa1e30	0.08306539
23	0xbd3a1b20	-0.045436025
24	0xbe02481e	-0.12722823
25	0xbe59f4d8	-0.21284807
26	0xbccbd9e0	-0.024884164
27	0xbdc77188	-0.09738451
28	0x3ce02ae0	0.027364194
29	0x3e0f483a	0.13992396
30	0x3ccc67a0	0.024951756
31	0x3ba1ea80	0.0049412847
32	0x3e220f48	0.15826142
33	0x3e510348	0.20411408
34	0x3d0045f8	0.031316727
35	0xbd8afdb8	-0.06786674
36	0x3e09307e	0.13397405
37	0x3da01f14	0.07818428
38	0xbdf01424	-0.117225915
39	0xbd6c2710	-0.05765444
40	0x3dfc9694	0.12333408
41	0xbe74faac	-0.23923749
42	0xbe221466	-0.15828094
43	0x3d77d260	0.060503364
44	0x3ccf1ad0	0.02528134
45	0xbe51d53a	-0.20491496
46	0x3e17d2b8	0.14826477
47	0x3d9cf1f4	0.076633364
48	0x3e27f204	0.16400915
49	0xbd815f28	-0.06316978
50	0xbc29b240	-0.0103574395
51	0xbde2149c	-0.11039087
52	0xbe5a851a	-0.21339837
53	0x3e10fc98	0.14158857
54	0x3d9dd00c	0.077056974
55	0x3e039094	0.12848121
56	0xbdd6022c	-0.10449633
57	0x3e0627b2	0.1310108
58	0x3d06b290	0.032885134
59	0xbdae1b68	-0.08501321
60	0x3e41e9d8	0.1893686
61	0xbdeec2bc	-0.116582364
62	0x3d032610	0.03201872
63	0xbd7fe050	-0.06246978
64	0xbe492f1c	-0.19646877
65	0x3db588d8	0.088639915
66	0xbc8a5540	-0.016886353
67	0x3e27fb22	0.16404393
68	0x3d417120	0.047227025
69	0xbe753d4a	-0.23949161
70	0xbe66be1c	-0.22533458
71	0xbe29a99c	-0.16568607
72	0xbe3d70d8	-0.18500078
73	0x3e51ca64	0.20487362
74	0x3e64dcb2	0.22349814
75	0x3d595228	0.053056866
76	0xbddac2dc	-0.10681698
77	0xbe6ec754	-0.23318225
78	0xbe1187e2	-0.14211991
79	0x3e162cd4	0.14665538
80	0xbd28bc78	-0.041195363
81	0x3e406690	0.18789124
82	0xbe10c0b0	-0.14136004
83	0x3e6c4bbe	0.23075768
84	0x3e033968	0.12814867
85	0x3cfb9560	0.030710876
86	0x3e6ad73e	0.22933671
87	0x3d260f50	0.040541947
88	0x3e4117c0	0.18856716
89	0x3d636e20	0.055524945
90	0x3e57d65c	0.21077865
91	0x3d7a59b8	0.06112072
92	0x3dda9260	0.1067245
93	0xbe58b4d4	-0.2116273
94	0x3e00d150	0.12579846
95	0xbe1bb8be	-0.15207192
96	0xbe7dc2d8	-0.24781358
97	0xbe47d626	-0.19515285
98	0x3c836470	0.016039103
99	0x3e6019f4	0.218849
100	0xbdf9df58	-0.122008026
101	0xbd557dd0	-0.052121937
102	0xbe763f20	-0.24047518
103	0x3e3da166	0.185186
104	0xbd8ce6fc	-0.06879994
105	0xbe78eb16	-0.24308428
106	0x3ce6e1d0	0.028183848
107	0x3cccc040	0.024994016
108	0xbd271bc0	-0.04079795
109	0x3e3365b4	0.17519265
110	0x3e1e8718	0.15481222
111	0xbe0797f4	-0.1324156
112	0x3e4cf184	0.20014006
113	0x3e529c8e	0.20567533
114	0xbe5a8da8	-0.213431
115	0x3e7dcf00	0.24785995
116	0xbda245c8	-0.07923466
117	0x3d4bcbb0	0.0497548
118	0x3e6b0752	0.22952011
119	0xbe330902	-0.17483905
120	0x3e2af808	0.16696179
121	0x3e54f740	0.20797443
122	0x3abce600	0.0014411807
123	0x3e3455e8	0.17610896
124	0x3e71f092	0.23626927
125	0x3e02b496	0.127642
126	0x3e67283a	0.22573939
127	0xbe599042	-0.21246436
128	0xbe640164	-0.22266155
129	0xbd1f04b8	-0.03882286
130	0xb9a4e000	-0.0003144741
131	0x3e5fc89a	0.21853867
132	0xbd6e86d8	-0.058234066
133	0x3d7503a0	0.05981791
134	0x3dd93378	0.1060552
135	0xbe6f1ad0	-0.23350072
136	0xbdfd3b28	-0.12364799
137	0x3e1e9f06	0.1549035
138	0xbd153f68	-0.036437422
139	0x3d5d8eb0	0.054091156
140	0xbe017f86	-0.12646303
141	0xbe2cfedc	-0.16894096
142	0xbe0e9f3c	-0.1392793
143	0xbdbbf4fc	-0.091775864
144	0x3ca73a20	0.020413458
145	0x3deb3e08	0.11486441
146	0x3e690d32	0.2275894
147	0xbc0c78e0	-0.008573741
148	0x3a852200	0.0010157228
149	0x3e62b8ca	0.22140804
150	0xbc289740	-0.010289967
151	0xbc5b96c0	-0.013402641
152	0xbd663180	-0.05619955
153	0x3e5e44b4	0.21705896
154	0xbd259838	-0.04042837
155	0xbc0657c0	-0.008199632
156	0x3dd7910c	0.10525712
157	0x3c5b59e0	0.013388127
158	0x3e51f618	0.20504034
159	0xbe7d245c	-0.24720901
160	0x3e0629da	0.13101903
161	0xbdcfd7c4	-0.10148576
162	0xbd697360	-0.056994796
163	0x3dd59dc4	0.10430482
164	0xbe486e08	-0.19573224
165	0xbdc0e69c	-0.09418985
166	0xbd21b9e8	-0.039483935
167	0xbe096026	-0.13415584
168	0x3e1c8688	0.15285695
169	0xbda00894	-0.07814136
170	0x3de65ce0	0.11248183
171	0x3d459788	0.048240215
172	0x3e56cc0a	0.20976272
173	0x3c515ca0	0.012778431
174	0xba69d000	-0.0008919239
175	0x3debb8c0	0.11509848
176	0xbd174208	-0.036928207
177	0x3e6cdbc8	0.23130715
178	0x3dea5128	0.114412606
179	0x3df08438	0.11743969
180	0xbe136c06	-0.14396676
181	0x3dcdf884	0.10057166
182	0xbe1356b8	-0.1438855
183	0x3e7bf610	0.24605584
184	0x3e5106fc	0.2041282
185	0xbe7ddea6	-0.24791965
186	0x3e0d8cd6	0.13823256
187	0x3d712e10	0.05888182
188	0xbe65f9b2	-0.22458532
189	0xbe7a8b9a	-0.24467316
190	0x3e0c1bd8	0.13682497
191	0xbde13af8	-0.109975755
192	0xbdf07dc4	-0.11742738
193	0xbe5ba36e	-0.21449062
194	0xbe594bfa	-0.21220389
195	0xbc417ee0	-0.0118100345
196	0xbe36256e	-0.17787716
197	0x3e73e15a	0.23816434
198	0x3cf2a1c0	0.029618144
199	0x3c8cfbf0	0.017209977
200	0xbcb2d460	-0.021829784
201	0xbd13bad8	-0.03606686
202	0xbe01e1f8	-0.12683856
203	0x3e30da98	0.17270887
204	0x3b9a9a40	0.004718095
205	0x3e64d454	0.22346622
206	0xbe223eb6	-0.15844235
207	0xbe50bc76	-0.20384392
208	0x3e14575c	0.1448645
209	0x3e6097f2	0.21932963
210	0xbd929860	-0.071579695
211	0xbdbd8338	-0.092535436
212	0xbe6a02a4	-0.2285257
213	0xbd8b61c8	-0.0680576
214	0x3ccfddd0	0.025374323
215	0x3da70898	0.08155936
216	0x3e364d10	0.17802835
217	0x3e2ef120	0.1708417
218	0x3e03ddda	0.12877598
219	0x3e5518c2	0.20810226
220	0x3e350304	0.17676932
221	0x3e43831e	0.19092986
222	0x3d084210	0.033266127
223	0xbd3e2980	-0.046426296
224	0xbdccf4e4	-0.10007647
225	0x3e316548	0.17323792
226	0x3cc07160	0.023491561
227	0x3e2710ce	0.16315004
228	0xbdfcda04	-0.12346271
229	0x3d4ef128	0.050522953
230	0xbb8f2e00	-0.0043694973
231	0xbd6d8598	-0.057988733
232	0xbdd542f0	-0.10413158
233	0x3e730094	0.2373069
234	0xbd445758	-0.04793486
235	0x3e42447c	0.18971437
236	0xbe7dc456	-0.24781927
237	0x3da04418	0.07825488
238	0x3d084578	0.033269376
239	0x3e78d8f4	0.24301511
240	0xbdb40a90	-0.08791077
241	0x3e35ce46	0.17754468
242	0x3e7a3b42	0.24436668
243	0xbe696186	-0.22791108
244	0x3e513156	0.20428976
245	0xbd09a8a8	-0.03360811
246	0xbe6a4b34	-0.2288025
247	0x3d112330	0.035433948
248	0x3dd4c730	0.103895545
249	0xbe2a6778	-0.16641033
250	0xbe5d67b2	-0.21621588
251	0xbe6d6dc4	-0.23186404
252	0x3dba7464	0.09104231
253	0xbe144750	-0.14480329
254	0x3dacb60c	0.0843316
255	0xbb51c380	-0.0032007396

exp_avg f4 [5, 8]
0	0xbb33465e	-0.0027355175
1	0x3912b9d2	0.00013992868
2	0x3bb2c5d6	0.005455713
3	0xbac32dbb	-0.0014890948
4	0xba2502a9	-0.0006294647
5	0x3ab45577	0.0013758381
6	0xba108ec9	-0.00055144407
7	0xbb89d02f	-0.0042057256
8	0xbb3e8656	-0.002907177
9	0xb911a23c	-0.00013888715
10	0x3bb8025e	0.0056155166
11	0xbb09be0a	-0.0021017813
12	0xbaa01d4b	-0.0012215761
13	0x3b12750b	0.0022347595
14	0xb94fb46b	-0.0001980827
15	0xbb8e7c67	-0.004348326
16	0xbb1de9ae	-0.0024095583
17	0x37d710d6	2.5637837e-05
18	0x3b885e4a	0.0041616308
19	0xbad43082	-0.0016188773
20	0xba79d16c	-0.00095298025
21	0x3aba0443	0.0014191944
22	0xb95340f4	-0.00020146725
23	0xbb7722ac	-0.0037709875
24	0xba2a8b53	-0.0006505746
25	0x3a0d7384	0.00053959363
26	0x3b431d69	0.0029772168
27	0xba9b6d12	-0.0011858067
28	0xba2c4e90	-0.0006572986
29	0xb9e02e48	-0.00042759092
30	0xb81e3341	-3.771787e-05
31	0xbb22bfd9	-0.0024833588
32	0xba83cb00	-0.0010055006
33	0x3a168f6c	0.00057434174
34	0x3b59a804	0.0033211717
35	0xba778834	-0.0009442598
36	0xb9835fd8	-0.00025057676
37	0xba01ea65	-0.0004955887
38	0xb9b35700	-0.0003420636
39	0xbb45d9f3	-0.0030189722

exp_avg_sq f4 [5, 8]
0	0x36858934	3.9796814e-06
1	0x33176f4e	3.5258658e-08
2	0x36fd1dac	7.543442e-06
3	0x3587cbf6	1.0117644e-06
4	0x35880b29	1.0136038e-06
5	0x359acc0d	1.1533281e-06
6	0x34a263fd	3.0247602e-07
7	0x366e0744	3.5468993e-06
8	0x366127c6	3.3550764e-06
9	0x348397ed	2.4511192e-07
10	0x36dbd8d1	6.5519494e-06
11	0x35f59e13	1.8299928e-06
12	0x350e8748	5.309598e-07
13	0x363b095e	2.7870624e-06
14	0x3481621e	2.4099512e-07
15	0x362d608b	2.5835204e-06
16	0x3644517a	2.9253702e-06
17	0x34837827	2.4488074e-07
18	0x36f1cb00	7.205992e-06
19	0x35ea4c97	1.7456649e-06
20	0x355aa334	8.144882e-07
21	0x35da2717	1.6253642e-06
22	0x346d7f09	2.211856e-07
23	0x3656f2fd	3.2029923e-06
24	0x365b4109	3.2671398e-06
25	0x33276846	3.8977554e-08
26	0x36b16a92	5.2874175e-06
27	0x35943a73	1.104387e-06
28	0x359b1f0b	1.1557435e-06
29	0x35598bb2	8.1042083e-07
30	0x34155464	1.3907407e-07
31	0x363621e1	2.7139833e-06
32	0x3655aaa6	3.1838804e-06
33	0x33f05480	1.11912414e-07
34	0x369dcd20	4.7028443e-06
35	0x35880b00	1.0135991e-06
36	0x3527b365	6.24734e-07
37	0x3567e9d9	8.63945e-07
38	0x3444966c	1.8308646e-07
39	0x364b1f2e	3.0267506e-06

exp_avg f4 [16, 10]
0	0x3d291a08	0.04128459
1	0xbd63b6c3	-0.055594217
2	0xbc24f032	-0.010067033
3	0xb9aad204	-0.000325814
4	0xbac50473	-0.0015031233
5	0xbb54b2d7	-0.003245523
6	0x3b9beb0b	0.004758244
7	0xb9f47212	-0.00046624296
8	0xbb6b3959	-0.0035892336
9	0xbac0c8cd	-0.0014708281
10	0x3b53803c	0.0032272479
11	0xbb9d209d	-0.0047951476
12	0xbb117cc4	-0.002219961
13	0xb96ade3b	-0.00022398766
14	0xba070b81	-0.00051515555
15	0xba144ba7	-0.0005657025
16	0x3a5e866b	0.0008488658
17	0x395d9562	0.00021131852
18	0xba24e647	-0.00062904175
19	0xb90384e1	-0.00012542635
20	0x3cb5a6b9	0.022174226
21	0xbda9df9f	-0.082946055
22	0xbc7e323d	-0.015514907
23	0x3a110cff	0.00055332476
24	0xbb3df23a	-0.002898349
25	0xbbcc2303	-0.0062297597
26	0x3c0e0ae5	0.00866959
27	0xba9ad2c4	-0.0011812081
28	0xbbbcb606	-0.0057590036
29	0xbb078146	-0.0020676418
30	0x3ba278d7	0.004958253
31	0xbc5fa49a	-0.013650084
32	0xbb094161	-0.002094351
33	0x3966dd0a	0.00022016853
34	0xb9e432c1	-0.00043525363
35	0xba81d38d	-0.0009904966
36	0x3ab1955c	0.0013548541
37	0xb93f4250	-0.00018239883
38	0xba5dc712	-0.0008460145
39	0xb963216a	-0.00021660855
40	0x3ba8c329	0.005150218
41	0xbc2ed6f4	-0.010671366
42	0xba119e59	-0.00055549067
43	0x39ef7041	0.00045669268
44	0xb7b30b4e	-2.1343727e-05
45	0xba3a8dc8	-0.0007116464
46	0x3a4d72a3	0.00078372116
47	0xb9ecae6f	-0.0004514339
48	0xb9daf7f4	-0.0004176494
49	0xb94857a9	-0.00019106142
50	0x3c5d53ac	0.013508718
51	0xbcce832d	-0.025209034
52	0xbbae3571	-0.0053164293
53	0x391c8ee1	0.00014930546
54	0xba41269c	-0.0007368119
55	0xbb07ffad	-0.002075176
56	0x3b346a73	0.002752927
57	0xb9c7f52d	-0.00038138908
58	0xbb0477d0	-0.0020213015
59	0xba418a9e	-0.00073830213
60	0x3bb023c7	0.0053753587
61	0xbca7a45e	-0.020464119
62	0xbb5a09fe	-0.0033270116
63	0x39a07d40	0.00030610897
64	0xba10e134	-0.0005526722
65	0xbac2058c	-0.0014802678
66	0x3b0d430b	0.0021554853
67	0xb9a916b8	-0.0003225112
68	0xbabd8115	-0.0014458025
69	0xb9e783c5	-0.0004415793
70	0xbcd65e98	-0.026168153
71	0x3cde481e	0.027133998
72	0x3c05a253	0.008156377
73	0x3a01e3b9	0.0004954893
74	0x3a80b0cb	0.0009818313
75	0x3b0f322b	0.002184997
76	0xbb71ef07	-0.0036916153
77	0xb92de2e5	-0.0001658309
78	0x3b4ee88d	0.0031571717
79	0x3a819e62	0.0009889121
80	0xbb334609	-0.0027354977
81	0x3c158742	0.009126486
82	0x3a32bc2b	0.00068182003
83	0xb9bc383a	-0.00035900046
84	0x3902476c	0.00012424373
85	0x3a144858	0.0005656532
86	0xba50a8da	-0.0007959731
87	0xb6a27818	-4.841957e-06
88	0x3a0672db	0.0005128809
89	0xb8d5d773	-0.00010196762
90	0xbc94e320	-0.018174708
91	0x3c6a4561	0.014298768
92	0x3bc9fef2	0.006164425
93	0x3991a4fb	0.00027779475
94	0x3a87e9e9	0.0010369393
95	0x3afa0b14	0.0019076788
96	0xbb3aecf3	-0.002852258
97	0x391cc684	0.00014951272
98	0x3b0b08a1	0.002121486
99	0x3a5af7f5	0.00083529885
100	0x3ad66dcb	0.0016359625
101	0x3a8f092c	0.0010912768
102	0xb9abb57d	-0.0003275088
103	0xb9abe130	-0.0003278344
104	0xb8c6f46a	-9.4869014e-05
105	0x3983e7b8	0.0002515891
106	0xb96e7d73	-0.00022744182
107	0x39af8db5	0.0003348418
108	0x3825d19c	3.953428e-05
109	0x38c21e04	9.256232e-05
110	0xbbba5a71	-0.005687051
111	0x3d02b47b	0.0319104
112	0x3b32aa39	0.0027262105
113	0xbaafa0c2	-0.001339935
114	0x3a1aa6f7	0.00058995135
115	0x3b26b94f	0.0025440042
116	0xbb45535d	-0.0030109503
117	0x3abc611e	0.0014372205
118	0x3abfd408	0.0014635334
119	0x3a3b39d1	0.0007142099
120	0xbc356841	-0.011072219
121	0x3d1ffcb5	0.03905936
122	0x3bc6c208	0.006065611
123	0x37a139d7	1.921963e-05
124	0x3a9c99b7	0.0011947666
125	0x3b1d94ad	0.0024044916
126	0xbb2d5dc7	-0.00264536
127	0x3a04b35b	0.00050621264
128	0x3adfc2e7	0.0017071635
129	0x3a5dee13	0.0008465957
130	0x398bfcb1	0.00026700416
131	0xbcf7e972	-0.030262683
132	0xbb175472	-0.0023091105
133	0x3a7f4313	0.0009737473
134	0xba2dddab	-0.00066324574
135	0xbb033251	-0.0020019005
136	0x3b19a97b	0.0023446965
137	0xba7cf088	-0.0009648879
138	0xba8c477f	-0.001070246
139	0xb9e4fbd5	-0.00043675178
140	0x3c41147b	0.011784668
141	0xbcd85ade	-0.026410516
142	0xbba036a9	-0.0048893285
143	0xb8fad0d2	-0.00011959825
144	0xba60febc	-0.000858288
145	0xbad3d9b9	-0.0016162909
146	0x3b1697a7	0.0022978575
147	0x37a64753	1.9821955e-05
148	0xbadf85b0	-0.0017053392
149	0xb9feaa17	-0.00048573382
150	0x3d1bbebf	0.038023707
151	0xbd38601b	-0.04501353
152	0xbc6f9d07	-0.014624841
153	0xbabb7e64	-0.0014304635
154	0xbaf8c965	-0.0018980919
155	0xbb6e757f	-0.003638595
156	0x3bb783b5	0.0056004175
157	0x38399b43	4.4252036e-05
158	0xbb9f1505	-0.0048548006
159	0xbb0a5903	-0.0021110184

exp_avg_sq f4 [16, 10]
0	0x3a4769fb	0.000760704
1	0x3a80f5ec	0.0009838915
2	0x38e4541f	0.00010887556
3	0x36a5d108	4.9417176e-06
4	0x3624ed78	2.457613e-06
5	0x35d91e23	1.6176531e-06
6	0x375689e1	1.2787496e-05
7	0x34d5c0f7	3.9814742e-07
8	0x373ddb6f	1.1316369e-05
9	0x35696569	8.6946835e-07
10	0x38347a9d	4.3029537e-05
11	0x3917286c	0.0001441554
12	0x370fa78a	8.562472e-06
13	0x34c9dc8c	3.7599636e-07
14	0x34dc799e	4.1066681e-07
15	0x33fa7c2a	1.16641175e-07
16	0x35a05403	1.194538e-06
17	0x3417e3bf	1.4145824e-07
18	0x3565b67c	8.55747e-07
19	0x310113e1	1.878327e-09
20	0x3a14e3db	0.0005679705
21	0x3a944779	0.0011312804
22	0x38ca631a	9.65057e-05
23	0x362e97f9	2.601648e-06
24	0x36338433	2.6750029e-06
25	0x36626e9d	3.374101e-06
26	0x378af2ba	1.656391e-05
27	0x34077248	1.261443e-07
28	0x373e4860	1.1341734e-05
29	0x35508930	7.768567e-07
30	0x3807c764	3.2372205e-05
31	0x38a628bd	7.923085e-05
32	0x36b31411	5.3369517e-06
33	0x34351039	1.686284e-07
34	0x34222560	1.5101023e-07
35	0x341b5e87	1.4469889e-07
36	0x3568f783	8.678691e-07
37	0x32c6470f	2.3082547e-08
38	0x352af6c4	6.3689026e-07
39	0x32d24e8b	2.4482935e-08
40	0x380180d3	3.0875974e-05
41	0x3899c8e5	7.333028e-05
42	0x368e99f2	4.2498514e-06
43	0x33c8aa2d	9.3441805e-08
44	0x33abcce6	8.000079e-08
45	0x34271a4e	1.5562657e-07
46	0x3567a086	8.62878e-07
47	0x31feb6e8	7.413167e-09
48	0x35277125	6.2376995e-07
49	0x333f199b	4.449394e-08
50	0x38ae999b	8.325578e-05
51	0x391aa02c	0.00014746253
52	0x3754e251	1.2688878e-05
53	0x34ead3e7	4.3740076e-07
54	0x3485c8cc	2.491928e-07
55	0x34af3327	3.2633508e-07
56	0x35dc2b86	1.6403944e-06
57	0x3350a9cb	4.85832e-08
58	0x35bdd047	1.4142214e-06
59	0x33cfc0c5	9.674253e-08
60	0x381ce4f0	3.7406513e-05
61	0x38923695	6.971989e-05
62	0x36c90b91	5.9916133e-06
63	0x3424b2c7	1.5338729e-07
64	0x33f27425	1.129013e-07
65	0x343adda7	1.7403237e-07
66	0x359939ea	1.1416244e-06
67	0x334b1f77	4.7293238e-08
68	0x357a307a	9.32028e-07
69	0x32b63da0	2.1215612e-08
70	0x39befd05	0.00036428138
71	0x39af7226	0.00033463648
72	0x385e474a	5.2995318e-05
73	0x360ae7f2	2.0698612e-06
74	0x359cee91	1.1692338e-06
75	0x3585f361	9.980105e-07
76	0x36ee7f97	7.107806e-06
77	0x33a57f83	7.7066055e-08
78	0x36c7099e	5.9317817e-06
79	0x34e5cf7c	4.280554e-07
80	0x38bec9ae	9.097472e-05
81	0x39432589	0.00018610632
82	0x375206bd	1.2518544e-05
83	0x325d7147	1.2889649e-08
84	0x349c1d1c	2.9078444e-07
85	0x3592a934	1.0927092e-06
86	0x36a5b6b2	4.9386517e-06
87	0x34067410	1.2521946e-07
88	0x3658053a	3.218955e-06
89	0x3309f5ec	3.2121463e-08
90	0x38a9c60a	8.0954356e-05
91	0x38784062	5.918777e-05
92	0x37365bf5	1.0869456e-05
93	0x340ed540	1.330236e-07
94	0x34a3da35	3.0519882e-07
95	0x35234916	6.0828586e-07
96	0x361ed055	2.36651e-06
97	0x32a219bd	1.8870987e-08
98	0x35bbb29e	1.398457e-06
99	0x33f66bf9	1.1474908e-07
100	0x385b65f1	5.230861e-05
101	0x38ab5f8f	8.1717146e-05
102	0x37127e69	8.73171e-06
103	0x35093e73	5.112735e-07
104	0x3470c050	2.2421705e-07
105	0x337e4356	5.9200225e-08
106	0x3572a2d2	9.038896e-07
107	0x33a287d6	7.568421e-08
108	0x356aacba	8.7423143e-07
109	0x3320dc4c	3.7453262e-08
110	0x38c995d9	9.612338e-05
111	0x39803b9f	0.00024458484
112	0x378484cb	1.5797463e-05
113	0x3519ea4d	5.7337894e-07
114	0x35121172	5.4414625e-07
115	0x351b96c0	5.796137e-07
116	0x363740f8	2.7306942e-06
117	0x339792a8	7.058162e-08
118	0x35e3b5ac	1.6965691e-06
119	0x341a762c	1.4385358e-07
120	0x392648fd	0.00015858184
121	0x39a97ad0	0.00032325694
122	0x37d88e91	2.5815594e-05
123	0x35771aec	9.2053847e-07
124	0x35321053	6.633392e-07
125	0x35358f32	6.763613e-07
126	0x36529e01	3.138441e-06
127	0x33383a3a	4.2893795e-08
128	0x36257a0e	2.4657961e-06
129	0x34682cfd	2.162305e-07
130	0x38967bbe	7.175606e-05
131	0x394bc2d1	0.00019432163
132	0x3735b287	1.0830007e-05
133	0x3440b9d6	1.7949e-07
134	0x34a1b640	3.012119e-07
135	0x3520b97b	5.9874554e-07
136	0x36302f21	2.6253476e-06
137	0x330e457b	3.3125144e-08
138	0x35cb1ed1	1.5133647e-06
139	0x341126e7	1.351833e-07
140	0x390582b0	0.00012732553
141	0x392cab67	0.0001646705
142	0x37ab71f4	2.0437852e-05
143	0x356ad17b	8.747663e-07
144	0x351cd929	5.843054e-07
145	0x34b606aa	3.390499e-07
146	0x36329dbe	2.6615885e-06
147	0x33b722a8	8.5279055e-08
148	0x360ff78d	2.1452754e-06
149	0x33e6647c	1.07284876e-07
150	0x39c94783	0.00038390988
151	0x39e1cebf	0.00043069382
152	0x386f2d13	5.702402e-05
153	0x3611dc24	2.1734822e-06
154	0x3584ab47	9.884615e-07
155	0x359d0471	1.1698704e-06
156	0x36ec745a	7.046893e-06
157	0x3333eb9e	4.1890978e-08
158	0x36ce8df0	6.155802e-06
159	0x3554823b	7.9165665e-07

exp_avg f4 [16]
0	0xbcd24eda	-0.025672365
1	0xbba380ec	-0.004989734
2	0xbd23b169	-0.039964113
3	0xbbb49318	-0.005510699
4	0xbb166960	-0.0022950992
5	0xbc663954	-0.014051754
6	0xbc11f1e4	-0.008907769
7	0x3ca7f770	0.02050373
8	0x3b091ee4	0.0020922953
9	0x3c7aec1c	0.015315082
10	0xb970c295	-0.00022960671
11	0x3c1323cf	0.008980705
12	0x3c7bccea	0.01536868
13	0xbbe71f4a	-0.0070532905
14	0xbc46d468	-0.0121356025
15	0xbd14205c	-0.036163673

exp_avg_sq f4 [16]
0	0x3a2cc5a7	0.0006590732
1	0x3843a0cb	4.6641373e-05
2	0x3a1eda63	0.0006059764
3	0x3808c939	3.261233e-05
4	0x37f2e3c7	2.8954715e-05
5	0x38a4fbc9	7.867028e-05
6	0x382182b6	3.8507125e-05
7	0x39af4b1a	0.00033434556
8	0x38beea71	9.103574e-05
9	0x389a9cc8	7.372495e-05
10	0x3856f3a0	5.124847e-05
11	0x38ce77a8	9.845133e-05
12	0x39270054	0.00015926483
13	0x389a45b1	7.356273e-05
14	0x390094a1	0.000122624
15	0x39bd4eb3	0.00036107525
