results_burger_hyper/figures/hyper-pinn_dats_1_10_num_3000/best_model.pt (torch, 127341 bytes, 30 tensors)

net.0.weight f4 [64, 1]
0	0x3e13d871	0.14438035
1	0xbd227ce7	-0.039669897
2	0xbe09df5a	-0.13464108
3	0x3e5bc89c	0.21463245
4	0xbc240eff	-0.010013341
5	0x3e94ed31	0.29087213
6	0x3dd56411	0.10419477
7	0xbe00c35d	-0.12574525
8	0x3da91b7e	0.08257197
9	0xbe5b1af7	-0.21397005
10	0x3e3cf4d9	0.18452777
11	0x3cf6fb00	0.030148983
12	0xbda5174b	-0.080610834
13	0xbdfc80f4	-0.12329283
14	0xbd914414	-0.07093063
15	0xbbeff931	-0.007323407
16	0xbdf608c0	-0.12013388
17	0x3d85b6ae	0.06528984
18	0xbc9aaac4	-0.018880256
19	0xbd5be2fa	-0.05368326
20	0xbd23d0dc	-0.039994106
21	0xbdf2e9b5	-0.11860982
22	0xbd9e5ce3	-0.077325605
23	0xbdae6844	-0.08515981
24	0x3c726edf	0.014796942
25	0x3c7a7637	0.015286974
26	0x3cee2172	0.029068682
27	0xbe5510ee	-0.2080724
28	0xbe305e38	-0.17223442
29	0xbe16a40f	-0.14711021
30	0xbe936b5a	-0.2879284
31	0xbe3df601	-0.18550874
32	0x3e464ba7	0.19364797
33	0xbe805a1e	-0.25068754
34	0x3dd1720f	0.10226833
35	0xbd67bae8	-0.056574732
36	0xbe8e2abc	-0.2776698
37	0x3d15d00b	0.03657536
38	0xbe2035d5	-0.15645535
39	0xbe162bf8	-0.1466521
40	0x3de45814	0.11149612
41	0x3e2feadf	0.1717944
42	0x3d7bb193	0.061448645
43	0xbe0f44a1	-0.13991024
44	0xbe440a3d	-0.1914453
45	0x3e1c6299	0.15271987
46	0x3d1d1fa1	0.03836024
47	0xbe8179dc	-0.25288284
48	0xbe1efe51	-0.15526702
49	0xbe4f17e5	-0.20223959
50	0x3e6f01e0	0.23340559
51	0x3e0b5349	0.1360599
52	0x3deb975e	0.115034804
53	0xbe042ed1	-0.12908484
54	0x3e49ad2a	0.19694963
55	0xbd8d0378	-0.06885427
56	0xbe05189c	-0.12997669
57	0xbe238096	-0.1596702
58	0xbe1674e7	-0.14693032
59	0x3e8730b0	0.26404333
60	0x3e2f5e1a	0.1712574
61	0xbe095718	-0.1341213
62	0x3e022f38	0.12713325
63	0xbbeb4d90	-0.007180877

net.0.bias f4 [64]
0	0x3d3e6bd6	0.04648956
1	0x3d65017a	0.05590961
2	0x3d249ef7	0.040190663
3	0x3d6ca3af	0.05777329
4	0x3d34b7d1	0.044120613
5	0x3d7734bf	0.060353037
6	0x3d46b8a1	0.04851592
7	0x3d32381b	0.043510538
8	0x3d25635e	0.040377967
9	0x3d30fd0d	0.043210078
10	0x3d7aa31f	0.06119072
11	0x3d2f6ec4	0.042830244
12	0x3d36d0f7	0.04463288
13	0x3d57c623	0.052679192
14	0x3d2a29bd	0.04154371
15	0x3d6257ee	0.055259638
16	0x3d7276f1	0.059195463
17	0x3d2e6f02	0.042586334
18	0x3d373df1	0.044736806
19	0x3d6888e6	0.05677118
20	0x3d660f88	0.056167156
21	0x3d43fb09	0.047846828
22	0x3d465c54	0.048427895
23	0x3d5d0bf3	0.053966474
24	0x3d56e71f	0.052466508
25	0x3d61f19a	0.05516205
26	0x3d5f1f33	0.054473113
27	0x3d58cc43	0.052929174
28	0x3d7587ac	0.05994384
29	0x3d453c88	0.04815343
30	0x3d2f13a5	0.042743344
31	0x3d642c32	0.05570621
32	0x3d6122e3	0.05496491
33	0x3d5b8488	0.05359319
34	0x3d213245	0.03935458
35	0x3d71b83d	0.059013594
36	0x3d61a6d5	0.055090744
37	0x3d64b602	0.05583764
38	0x3d49f206	0.049303077
39	0x3d2b144f	0.041767415
40	0x3d575b58	0.052577347
41	0x3d565cd6	0.05233463
42	0x3d60f51b	0.05492125
43	0x3d2a5dcf	0.04159337
44	0x3d30061c	0.042974576
45	0x3d3be994	0.045877054
46	0x3d42a2b1	0.047518436
47	0x3d3153a1	0.043292645
48	0x3d5ad623	0.053426873
49	0x3d48ce6d	0.049024988
50	0x3d5b73d8	0.053577274
51	0x3d735423	0.05940641
52	0x3d1b9959	0.03798804
53	0x3d415317	0.04719838
54	0x3d39e6ce	0.045386128
55	0x3d38cfe4	0.045120135
56	0x3d6826ca	0.056677617
57	0x3d3377ce	0.043815427
58	0x3d6e28f4	0.058144525
59	0x3d42dc17	0.047573175
60	0x3d69f8b9	0.057121966
61	0x3d6b7211	0.05748183
62	0x3d3086ac	0.043097183
63	0x3d40775d	0.046988834

net.2.weight f4 [32, 64]
0	0xb9c3040d	-0.00037196316
1	0x3ccbbf27	0.024871422
2	0x3d991aa2	0.07475783
3	0xbd0c9b1f	-0.034327623
4	0xbb016124	-0.0019741738
5	0x3e13ec11	0.14445521
6	0x3e764685	0.24050339
7	0x3d6aa8a4	0.057289734
8	0xbb597489	-0.0033181033
9	0xbd9b545d	-0.075844504
10	0x3e17ee43	0.14836983
11	0xbe4adc0d	-0.19810505
12	0x3e600696	0.21877512
13	0x3de38449	0.11109216
14	0x3e77940a	0.24177566
15	0x3e00df4e	0.12585184
16	0x3e1c3a45	0.15256603
17	0xbdbe35fb	-0.0928764
18	0xbdc78e7f	-0.09743976
19	0x3dec81db	0.115482055
20	0xbdeb1fa5	-0.11480645
21	0x3e37470a	0.17898193
22	0x3e170974	0.147497
23	0xba9e08ca	-0.0012057063
24	0x3e648ae8	0.22318614
25	0x3da3a1bc	0.07989833
26	0xbbc02c2f	-0.005864642
27	0xbdcba51b	-0.09943601
28	0xbd4a1284	-0.049334064
29	0x3db36b1c	0.08760664
30	0xbe4e596f	-0.20151304
31	0x3e5f4210	0.21802545
32	0xbdf6e19a	-0.12054749
33	0x3da4cdcb	0.080470644
34	0x3e75bdbf	0.23998164
35	0xbe01ce04	-0.12676245
36	0x3e41e9ff	0.18936919
37	0xbe5cad16	-0.21550402
38	0x3e5f338f	0.21797012
39	0x3e70cda6	0.23515949
40	0x3e067ac1	0.13132764
41	0xbd611248	-0.054949075
42	0x3e0e0e2e	0.13872597
43	0x3d266bf5	0.0406303
44	0xbe779a46	-0.24179944
45	0xbd11bf68	-0.03558293
46	0xbe400e1c	-0.18755382
47	0xbe3b8d68	-0.18315661
48	0x3d72c1d6	0.059266888
49	0x3e7f3486	0.2492238
50	0x3e82a18a	0.2551387
51	0x3e0f1fca	0.1397697
52	0xbdae6f23	-0.085172914
53	0x3e3f6576	0.18691048
54	0xbe30d51b	-0.17268793
55	0xbdfbda9e	-0.12297557
56	0x3e1eeb7f	0.15519522
57	0xbce4324e	-0.027856018
58	0xbdff3d65	-0.12462882
59	0xbe70cf7d	-0.2351665
60	0xbdccddff	-0.1000328
61	0x3e043292	0.12909916
62	0xbda68543	-0.081308864
63	0x3d28d441	0.041218046
64	0xbe2efbbc	-0.17088217
65	0xbe16a611	-0.14711787
66	0x3e5ba763	0.21450572
67	0xbd9c3de5	-0.07628993
68	0xbe0e27bb	-0.13882343
69	0x3e5626fc	0.20913309
70	0x3e1f580b	0.1556093
71	0xbda087d4	-0.07838407
72	0x3e6698ad	0.22519179
73	0xbe026894	-0.12735206
74	0xbe85cc3c	-0.2613238
75	0xbe07c9d6	-0.13260588
76	0x3dbea4b1	0.09308756
77	0xbdc3dda9	-0.09563763
78	0xbe7c52dc	-0.24640983
79	0xbe4043b1	-0.18775822
80	0x3e18e946	0.14932737
81	0x3e6c5630	0.23079753
82	0x3de5e505	0.11225323
83	0x3d5c1752	0.053733177
84	0x3d8d1c34	0.06890145
85	0xbde07f4a	-0.109617785
86	0xbe4fd09b	-0.2029442
87	0x3e7176db	0.23580496
88	0xbc88e1c1	-0.01670921
89	0xbe5ecc0a	-0.21757522
90	0xbe337521	-0.1752515
91	0x3d6f248c	0.058384463
92	0xbdcad55e	-0.09903978
93	0x3ca7244d	0.020403052
94	0x3e651dbe	0.22374627
95	0x3e2621a7	0.16223775
96	0x3e257518	0.16157949
97	0x3cfd7771	0.030940743
98	0x3d0c874c	0.034308717
99	0xbe30fc7d	-0.17283817
100	0x3e4dbbfc	0.20091242
101	0xbd6e7d25	-0.058224816
102	0xbe33cdf1	-0.17559029
103	0xbe759cd3	-0.23985605
104	0xbe43c508	-0.1911813
105	0x3dd6efd3	0.104949616
106	0xbdbfd358	-0.093664825
107	0x3e4d2737	0.2003449
108	0x3ded34d4	0.11582342
109	0xbe2a47a5	-0.16628893
110	0x3d7d45a7	0.061834004
111	0x3e2db68a	0.16964164
112	0x3cb06448	0.021532193
113	0x3d991996	0.07475583
114	0xbe6d0ddb	-0.23149817
115	0x3c845a6e	0.016156401
116	0x3e47158d	0.19441815
117	0xbdcadf87	-0.09905916
118	0x3d33bbcf	0.04388028
119	0xbe364204	-0.1779862
120	0xbd8ecdd7	-0.069728546
121	0xbd61c1b1	-0.05511636
122	0xbb7d951f	-0.003869362
123	0x3e290c8d	0.16508694
124	0xbe7087d7	-0.23489319
125	0xbe028095	-0.12744363
126	0x3df12bcb	0.11775931
127	0x3e3d8c3c	0.18510526
128	0xbe347ea3	-0.17626433
129	0xbe6f2949	-0.23355593
130	0xbe4ab47a	-0.19795409
131	0x3e604ec5	0.21905048
132	0x3e797fda	0.24365178
133	0x3e8435e9	0.2582238
134	0x3e2ca927	0.16861401
135	0x3d31afb0	0.04338044
136	0xbdaa3b1c	-0.083120555
137	0x3e6230af	0.22088884
138	0xbd81db41	-0.063406475
139	0xbe3ac4fa	-0.18239203
140	0xbda296ec	-0.07938942
141	0xbdba55c5	-0.090983905
142	0x3e6f2304	0.23353201
143	0x3e55f91b	0.20895807
144	0x3d954250	0.07288039
145	0x3e2109e9	0.15726437
146	0x3e01b4fb	0.12666695
147	0x3e4ab447	0.19795333
148	0x3d04d08e	0.032425456
149	0xbe3a2327	-0.18177472
150	0x3dde7799	0.10862655
151	0x3dbdebe1	0.09273506
152	0x3e49a5b4	0.19692117
153	0x3c4229a6	0.01185075
154	0x3c90ac15	0.01766018
155	0x3df5ed96	0.120082065
156	0x3dc0578b	0.093916975
157	0x3d841f1d	0.06451247
158	0x3e6c0604	0.2304917
159	0x3d71bfe1	0.05902088
160	0x3e7a3d7b	0.24437515
161	0xbe2a8c6a	-0.16655126
162	0x3cbfbadc	0.023404531
163	0x3d9d411c	0.07678434
164	0xbe6e8991	-0.23294665
165	0x3de133c3	0.10996201
166	0xbd36ccec	-0.044629022
167	0x3e1e497d	0.15457721
168	0xbde39df7	-0.11114114
169	0x3da8c376	0.08240406
170	0x3da1c081	0.07898045
171	0x3d4345aa	0.04767386
172	0xbe079a74	-0.13242513
173	0xbe1b22be	-0.15149972
174	0x3e07f131	0.13275601
175	0xbb9a3c08	-0.0047068633
176	0x3dc6b2ff	0.097021095
177	0x3e5c6878	0.21524227
178	0xbe315c0a	-0.17320266
179	0xbe669666	-0.2251831
180	0x3e2562a8	0.16150916
181	0xbe70ad08	-0.23503506
182	0x3cad04ae	0.021120396
183	0x3e2758b7	0.16342436
184	0xbbb02199	-0.005375099
185	0xbca4e66c	-0.020129405
186	0x3e75680c	0.23965472
187	0xbe49ed05	-0.19719322
188	0xbe58515f	-0.2112479
189	0x3e52883c	0.20559782
190	0xbd89ed70	-0.06734741
191	0xbd8c7f64	-0.06860235
192	0x3da00c32	0.07814826
193	0xbdf7deef	-0.12103068
194	0x3e700ed7	0.23443161
195	0xbe846c38	-0.25863814
196	0x3df40755	0.11915461
197	0xbdbf8c63	-0.093529485
198	0x3e37481d	0.17898603
199	0xbc3f34ab	-0.011670272
200	0xbe446bac	-0.19181699
201	0x3e0c335c	0.13691467
202	0x3c975036	0.018470865
203	0x3e5b40a9	0.21411385
204	0x3df17912	0.117906705
205	0x3e3f02df	0.18653439
206	0xbe7ef8dc	-0.2489962
207	0x3dfee27c	0.12445542
208	0xbdb0ad01	-0.08626748
209	0x3de17d72	0.11010255
210	0xbe468aec	-0.19388932
211	0xbe81dbce	-0.2536301
212	0xbd2579a0	-0.040399194
213	0xba755825	-0.0009359143
214	0xbdcc8b55	-0.09987513
215	0x3e16d006	0.14727792
216	0xbe3d8e9d	-0.18511434
217	0xbdaae03f	-0.08343553
218	0xbe53b19c	-0.20673221
219	0x3e2583c7	0.1616355
220	0x3e27ddb0	0.16393161
221	0x3e535553	0.20638017
222	0xbb8e7684	-0.0043476243
223	0xbd93afcc	-0.07211265
224	0x3e122b18	0.14274251
225	0x3dc93b92	0.09825815
226	0xbe4d66c4	-0.20058733
227	0x3e6a5ac0	0.22886181
228	0xbdf11269	-0.117710896
229	0xbc72d47a	-0.014821166
230	0xbe358669	-0.17727055
231	0x3e19615a	0.14978543
232	0x3d428877	0.047493424
233	0xbe7da532	-0.24770048
234	0x3e61edca	0.22063366
235	0xbe43e21c	-0.19129223
236	0x3e1044dc	0.14088768
237	0xbd265beb	-0.040615004
238	0xbdb9fe0e	-0.0908166
239	0xbdbdc8d8	-0.092668235
240	0x3d3b4a26	0.04572501
241	0x3e0df010	0.13861108
242	0xbde0c938	-0.109758794
243	0xbdb82860	-0.08992076
244	0xbdc8d10d	-0.09805498
245	0xbe7603e9	-0.24024929
246	0xbc8e0b36	-0.01733933
247	0xbcc4c564	-0.024019904
248	0xbe7406bf	-0.23830698
249	0xbd36e668	-0.044653326
250	0x3e6436d9	0.22286548
251	0xbdbc8421	-0.09204889
252	0x3d862bf8	0.06551355
253	0x3e582188	0.21106541
254	0x3e07ced1	0.13262488
255	0xbd0e1aa2	-0.034693368

net.2.bias f4 [32]
0	0x3d70e8e6	0.05881586
1	0x3d2353ef	0.039874967
2	0x3d747d6f	0.059689935
3	0x3d23197c	0.039819226
4	0x3d3bd460	0.045856833
5	0x3d8127a4	0.06306389
6	0x3d4ccccd	0.05
7	0x3d5d174d	0.0539773
8	0x3d6e9834	0.05825062
9	0x3d2502fc	0.04028605
10	0x3d5cc9f0	0.05390352
11	0x3d84916f	0.06473052
12	0x3d740e6b	0.059584063
13	0x3d39a50a	0.04532341
14	0x3d2975cf	0.041372117
15	0x3d6c1bee	0.057643823
16	0x3d8205a6	0.063487336
17	0x3d7d5dbd	0.061856974
18	0x3d42d267	0.047563937
19	0x3d36d001	0.04463196
20	0x3d6de1bc	0.058076605
21	0x3d662888	0.056190997
22	0x3d52d8d4	0.051476315
23	0x3d39e27d	0.04538201
24	0x3d2fb1fc	0.04289435
25	0x3d39d1e8	0.045366198
26	0x3d4c1dab	0.04983298
27	0x3d7015d5	0.05861457
28	0x3d4ccccd	0.05
29	0x3d364aaa	0.0445048
30	0x3d7c36fd	0.06157588
31	0x3d33ad58	0.043866485

net.4.weight f4 [16, 32]
0	0x3cc366ba	0.023852695
1	0x3cb56d75	0.02214692
2	0xbd997c6c	-0.07494435
3	0xbe9afa38	-0.30269027
4	0x3e4b7a38	0.19870842
5	0xbe89d966	-0.26923674
6	0x3cd61b50	0.02613607
7	0xbe04df23	-0.12975745
8	0x3dc0a9ad	0.09407363
9	0xbea8d5ca	-0.32975608
10	0xbe4d45db	-0.20046179
11	0x3e439c0f	0.191025
12	0x3e236ee7	0.15960275
13	0xbe6ff09f	-0.23431633
14	0xbe0b63a2	-0.13612226
15	0xbe377d26	-0.17918834
16	0xbb036a26	-0.0020052283
17	0x3e093cac	0.1340205
18	0xbc01f3ab	-0.00793163
19	0x3e5fe527	0.21864758
20	0x3e8f4471	0.27981904
21	0x3e1658b7	0.1468228
22	0x3e5c95a0	0.21541452
23	0x3cfc7876	0.030819159
24	0xbe828df5	-0.2549893
25	0xbda470ef	-0.08029353
26	0x3e85635d	0.2605237
27	0x3e0bdbf3	0.13658123
28	0xbe8dede7	-0.27720568
29	0x3e3c2a72	0.18375567
30	0x3e87bb2c	0.26509988
31	0x3d3bbc48	0.045833856
32	0xbe9449a7	-0.28962442
33	0xbb0ebe80	-0.0021781027
34	0xbe40d928	-0.18832839
35	0xbe33d72b	-0.17562549
36	0x3d28d2b8	0.041216582
37	0xbe91997a	-0.28437406
38	0x3cd72c70	0.026266307
39	0xbe25e64d	-0.16201134
40	0xbea99e51	-0.33128598
41	0xbea75dc4	-0.32688725
42	0xbe45dac7	-0.19321738
43	0x3e5f8f92	0.21832111
44	0xbded3282	-0.11581899
45	0xbdf676a0	-0.12034345
46	0x3e52d2d6	0.2058824
47	0xbe9dc6c9	-0.30815724
48	0x3e4edbaa	0.20200983
49	0x3e5f749a	0.21821824
50	0xbe92fd42	-0.28708845
51	0x3e310692	0.17287663
52	0x3e24ae9e	0.16082236
53	0x3babf3c0	0.005247563
54	0x3dae51c0	0.08511686
55	0xbe08fc49	-0.13377489
56	0x3e70aa6e	0.23502514
57	0xbb5c8180	-0.0033646524
58	0xbe99c08d	-0.30029717
59	0xbeb3ac92	-0.35092598
60	0x3dff6624	0.12470654
61	0x3e9c0e53	0.3047968
62	0x3e0652e4	0.13117558
63	0x3db19254	0.08670488
64	0x3e03f916	0.12887987
65	0xbe0e06d8	-0.13869798
66	0x3df8ed1e	0.121546015
67	0x3e86e714	0.26348174
68	0x3e123c90	0.14280915
69	0x3e4d1812	0.20028713
70	0x3e69195e	0.22763583
71	0x3e506fe5	0.20355184
72	0x3e7ca04c	0.24670523
73	0x3e1e3193	0.15448599
74	0xbd20bd1d	-0.039242852
75	0xbdf2463e	-0.11829804
76	0xbe9f0994	-0.31061995
77	0x3e95b2bf	0.29237935
78	0xbe4af99d	-0.19821782
79	0xbd3f13f6	-0.046649896
80	0x3eab8a14	0.33503783
81	0xbdb16b33	-0.08663025
82	0xbead5137	-0.33851025
83	0xbd962874	-0.073319346
84	0xbe49e5a5	-0.19716509
85	0x3de4f2d0	0.11179125
86	0xbe6cb0e7	-0.23114358
87	0xbd8dcad4	-0.06923452
88	0xba8f515b	-0.001093428
89	0xbea9b011	-0.3314214
90	0xbe3da15d	-0.18518586
91	0x3ddbc023	0.107300065
92	0xbe01ee61	-0.1268859
93	0xbd35e835	-0.044410903
94	0xbd70249e	-0.05862867
95	0xbd27dd9d	-0.04098283
96	0x3e968d0d	0.29404488
97	0x3d66884b	0.056282323
98	0x3e314305	0.17310722
99	0xbeb55414	-0.3541571
100	0xbcd18324	-0.025575228
101	0x3e56accb	0.20964353
102	0x3e266a86	0.16251573
103	0x3cc5217d	0.02406382
104	0xbe99dc63	-0.30050954
105	0xbe2aa48e	-0.16664335
106	0xbe0f20a7	-0.139773
107	0x3e0f9efb	0.1402549
108	0x3e6dcfa0	0.23223734
109	0x3ddfc2ab	0.10925802
110	0x3cdd4517	0.027010484
111	0xbeb722fd	-0.3576888
112	0xbc9c06d0	-0.019046217
113	0xbde1c8e3	-0.11024644
114	0x3ea2012b	0.31641516
115	0x3dbc909e	0.09207271
116	0x3e8da942	0.27668196
117	0xbe57cd82	-0.21074489
118	0xbe5b4a90	-0.21415162
119	0x3e7e87e1	0.24856521
120	0x3e0f324f	0.13984035
121	0x3ea9c205	0.33155838
122	0xbeb2b053	-0.3490015
123	0xbea16525	-0.3152248
124	0xbeaf6431	-0.34256127
125	0x3e1ab360	0.15107489
126	0xbddc6e6c	-0.10763249
127	0x3e92eeb4	0.2869774
128	0xbe09ab45	-0.1344424
129	0xbcabb6be	-0.020961162
130	0x3e81dec5	0.25365272
131	0x3d2d8ae0	0.04236877
132	0x3da4b439	0.08042187
133	0xbe8586df	-0.2607946
134	0x3d8dd8a0	0.069260836
135	0x3e9acf4c	0.3023628
136	0x3e933730	0.28753042
137	0xbe4bcc11	-0.19902064
138	0x3e69af75	0.22820838
139	0x3e2fc159	0.171636
140	0xbd46df16	-0.048552595
141	0x3e596a0d	0.21231861
142	0xbea82c9e	-0.3284654
143	0x3e12359a	0.1427826
144	0x3d5ead00	0.054364204
145	0x3e47b86c	0.19503945
146	0x3eb64395	0.35598436
147	0xbe47a70d	-0.19497319
148	0x3ea79f70	0.3273883
149	0x3e1bc1fb	0.15210716
150	0x3e636334	0.22205812
151	0xbd49d630	-0.04927653
152	0x3d249c72	0.04018826
153	0x3c187ecb	0.009307574
154	0xbe97c604	-0.2964326
155	0x3e6d9689	0.23201956
156	0x3e48ec12	0.19621304
157	0x3dea4803	0.114395164
158	0x3e9b4306	0.30324572
159	0x3e868f16	0.2628104
160	0x3dcc9ecb	0.09991225
161	0xbe9a325d	-0.3011655
162	0x3e38d14f	0.18048595
163	0x3d65deae	0.056120567
164	0x3e687b76	0.22703347
165	0x3ea1978e	0.3156094
166	0x3e77914e	0.24176523
167	0xbe2c4b85	-0.16825683
168	0xbd2d765a	-0.042349197
169	0xbd27fe7b	-0.041014176
170	0x38c2f01b	9.295364e-05
171	0xbd8f7e71	-0.07006539
172	0xbe8e9cc9	-0.27853993
173	0x3d6752c9	0.056475434
174	0xbd4ce421	-0.05002225
175	0x3e082ab8	0.13297546
176	0x3dde4274	0.10852519
177	0x3db83666	0.08994751
178	0x3e6bd70c	0.23031253
179	0x3e4721c0	0.19446468
180	0x3e26e277	0.16297327
181	0xbd6e817c	-0.058228955
182	0x3e91fb42	0.28512007
183	0xbdc9c2bd	-0.098515965
184	0x3dd0bfdc	0.10192844
185	0x3d69390f	0.05693918
186	0xbe8b346f	-0.2718844
187	0x3d956f13	0.07296576
188	0xbe879af0	-0.26485395
189	0xbeaeb73d	-0.34124175
190	0xbe95f9ed	-0.2929224
191	0x3e86a51b	0.2629784
192	0xbe4ab57e	-0.19795796
193	0x3cc5da70	0.02415201
194	0x3e842cc1	0.25815395
195	0xbe92e6f7	-0.28691837
196	0x3c948bc0	0.018133044
197	0x3da26d98	0.079310596
198	0x3e4c864a	0.19973102
199	0xbe0e1c99	-0.13878097
200	0xbe4d7d0b	-0.20067231
201	0xbe59af92	-0.21258381
202	0x3c882a00	0.01662159
203	0xbd9eae78	-0.07748121
204	0xbe87f2ce	-0.26552433
205	0xbdd534e8	-0.10410482
206	0xbe03b394	-0.12861472
207	0x3e5c4b2a	0.21513048
208	0xbdcad400	-0.09903717
209	0x3eadc50d	0.339394
210	0x3ea7e62f	0.32792804
211	0xbe299d1b	-0.16563837
212	0x3cb42a30	0.021992773
213	0xbd3a5400	-0.045490265
214	0x3c2312c0	0.009953201
215	0xbe91a836	-0.28448647
216	0x3c7f3a40	0.015577853
217	0xbe1c52ff	-0.15266035
218	0x3dcfb1c4	0.10141328
219	0xbdd7368e	-0.10508452
220	0xbe7c1e1f	-0.24620865
221	0x3e3ded2a	0.18547502
222	0xbe99c7ce	-0.3003525
223	0xbe3bb17c	-0.18329424
224	0xbe16d757	-0.14730583
225	0x3e4d7e97	0.20067821
226	0x3ce8100e	0.028327968
227	0x3dee8005	0.116455115
228	0xbdee0329	-0.116216965
229	0xbebcfe07	-0.36912557
230	0x3e2bf31e	0.1679196
231	0x3d808302	0.06274988
232	0xbe81ac1a	-0.25326616
233	0x3ea710b7	0.3262994
234	0x3ea8bf60	0.32958508
235	0xbd819d98	-0.06328887
236	0x3e5a0ae0	0.21293211
237	0x3e68ef21	0.2274747
238	0x3e767910	0.24069619
239	0xbe68ea44	-0.22745615
240	0x3eab6112	0.33472496
241	0xbebae658	-0.36503863
242	0xbde51481	-0.111855514
243	0x3e121fa3	0.14269881
244	0xbea920fe	-0.33032984
245	0xbdda64ca	-0.10663755
246	0xbe292238	-0.1651696
247	0xbe546462	-0.20741418
248	0x3d59874d	0.05310755
249	0x3e9edf4f	0.31029746
250	0x3e7c2e00	0.24626923
251	0xbd842463	-0.06452253
252	0x3e1e3bbe	0.15452477
253	0x3cd8fdd6	0.026488226
254	0xbe61d811	-0.22055079
255	0xbcd85212	-0.026406322

net.4.bias f4 [16]
0	0x3d83d579	0.06437201
1	0x3d4ccccd	0.05
2	0x3d41450e	0.047184996
3	0x3d3e6db1	0.04649133
4	0x3d65d9c6	0.056115888
5	0x3d33fdd5	0.043943245
6	0x3d4ccccd	0.05
7	0x3d22c014	0.03973396
8	0x3d5ff031	0.054672424
9	0x3d2d1d3c	0.04226421
10	0x3d3a8705	0.04553892
11	0x3d3a7416	0.045520864
12	0x3d3116c4	0.0432346
13	0x3d613dfc	0.054990754
14	0x3d740f41	0.05958486
15	0x3d6ff904	0.05858709

net.6.weight f4 [16, 16]
0	0xbebc71b8	-0.3680551
1	0x3eb89fe3	0.36059484
2	0x3e09ae33	0.13445358
3	0x3e5ce385	0.21571167
4	0xbdf19d87	-0.11797624
5	0xbea4ab3e	-0.32161897
6	0xbe32667c	-0.17421907
7	0x3e766834	0.24063188
8	0x3eab87c9	0.33502033
9	0x3ea400cd	0.3203186
10	0x3d123ebc	0.03570436
11	0x3ea51ab8	0.32246947
12	0x3cc31b9f	0.023816882
13	0xbebd583a	-0.36981374
14	0x3e95a889	0.29230145
15	0x3e857444	0.26065266
16	0xbd728f40	-0.059218645
17	0xbe72b37d	-0.23701282
18	0x3d44e440	0.04806924
19	0x3d882624	0.066479
20	0xbe70250f	-0.23451637
21	0x3d84e660	0.06489253
22	0xbeaa84c8	-0.3330443
23	0x3e02e45e	0.12782428
24	0x3e1ac586	0.15114412
25	0x3e2d5cda	0.16929951
26	0x3e5cfe7e	0.21581456
27	0xbe836918	-0.25666118
28	0xbec9deff	-0.39427945
29	0x3e5072f2	0.20356348
30	0xbeaa7c76	-0.3329808
31	0xbdd85260	-0.10562587
32	0x3e8079a1	0.25092795
33	0xbeafdc46	-0.34347743
34	0x3e158379	0.14600934
35	0xbe9e5e0b	-0.30931124
36	0xbcd32cfe	-0.02577829
37	0x3e942283	0.2893258
38	0xbdf9bf5c	-0.12194702
39	0xbe87f2a0	-0.26552296
40	0x3e4ab237	0.19794546
41	0xbe55ed36	-0.2089127
42	0xbe9feb56	-0.31234235
43	0xbe6f292b	-0.23355548
44	0x3e2fce56	0.17168555
45	0xbe3b9f84	-0.18322569
46	0xbd4e060d	-0.05029874
47	0x3a18b85d	0.0005825812
48	0xbe68f2cc	-0.2274887
49	0x3e4216e2	0.18954042
50	0xbd51d322	-0.051226743
51	0xbeb595e8	-0.35465932
52	0xbe994465	-0.29934993
53	0xbd8ec07b	-0.069703065
54	0xbebde8d0	-0.37091684
55	0x3e7a04d8	0.2441591
56	0xbd7c1696	-0.061544977
57	0xbea0b35d	-0.31386843
58	0x3d26306d	0.040573526
59	0xbd4aadbe	-0.0494821
60	0x3c51bc7b	0.012801285
61	0xbdc9b6c1	-0.09849311
62	0x3e47e5fe	0.19521329
63	0x3ee2bafe	0.4428329
64	0x3e90852b	0.282266
65	0xbe65bd12	-0.22435406
66	0x3e0d5761	0.13802864
67	0x3d310c6f	0.04322475
68	0x3ea7693c	0.32697475
69	0xbe1c29fa	-0.15250388
70	0xbeab2130	-0.33423758
71	0x3d602562	0.05472315
72	0x3d32ec35	0.043682296
73	0xbdda4cbb	-0.106591664
74	0xbc75e841	-0.015008987
75	0xbeb08472	-0.34476048
76	0x3e8ad80a	0.2711795
77	0x3d85da98	0.06535834
78	0x3eb53c44	0.35397542
79	0xbeb3d44c	-0.35122907
80	0xbd966440	-0.0734334
81	0xbd81926c	-0.06326756
82	0xbd756d1f	-0.05991852
83	0xbe77f55b	-0.2421469
84	0x3ebdc780	0.3706627
85	0x3d0331be	0.03202986
86	0x3e0bb782	0.13644221
87	0xbed7cfd6	-0.42150754
88	0x3ed1ea3d	0.40999022
89	0xbc3c60da	-0.011497701
90	0xbeaaa0f4	-0.33325922
91	0x3e621da4	0.2208162
92	0xbc2009e9	-0.009767988
93	0xbe580f7c	-0.21099657
94	0xbe1c0f5c	-0.15240234
95	0x3e7feef1	0.24993493
96	0xbe5aa256	-0.21350989
97	0xbe27491a	-0.1633648
98	0x3e6095d4	0.21932155
99	0x3ea0b709	0.31389645
100	0x3cf1b9c0	0.029507518
101	0x3e154661	0.14577629
102	0xbcc54c90	-0.02408436
103	0xbec61a69	-0.38692024
104	0xbe2fab1d	-0.17155118
105	0xbeccefa3	-0.40026578
106	0xbe5e824a	-0.21729389
107	0xbd061c27	-0.032741692
108	0x3e8a3094	0.26990187
109	0x3ed7ace8	0.42124104
110	0xbec1d826	-0.3786022
111	0xbe0a01a2	-0.13477185
112	0x3e8e4cce	0.27792972
113	0xbe316a60	-0.17325735
114	0x3e8cbc02	0.2748719
115	0xbda11798	-0.07865828
116	0x3ea38f58	0.319453
117	0xbe6bf94c	-0.23044318
118	0xbc63d1e0	-0.013905019
119	0x3e937d71	0.28806642
120	0x3e07062d	0.1318595
121	0x3dc8e623	0.0980952
122	0xbeac954d	-0.33707657
123	0xbe4f68f5	-0.20254882
124	0xbeb0be22	-0.3452006
125	0x3d4c0a10	0.049814284
126	0x3dbe6b02	0.09297754
127	0x3e6ee5c1	0.23329832
128	0x3e83b0a7	0.25720713
129	0xbeacb302	-0.33730322
130	0xbea30020	-0.31836033
131	0x3d2c2b85	0.04203369
132	0x3e155361	0.14582588
133	0x3e8f361c	0.2797097
134	0x3e71fd4e	0.23631784
135	0xbecf3733	-0.404718
136	0x3d87d8f3	0.06633177
137	0x3dc42d9d	0.095790125
138	0x3ed5e110	0.41773272
139	0xbe873004	-0.2640382
140	0xbec9bd8c	-0.39402425
141	0x3e3b02b6	0.18262753
142	0xbed8c0e8	-0.42334676
143	0x3e8c43dd	0.27395526
144	0x3edd375b	0.43206295
145	0xbdbb64e8	-0.09150106
146	0x3e6f5531	0.23372342
147	0x3d2de730	0.042456806
148	0xbe64f1a0	-0.22357798
149	0x3e98c3ae	0.29836792
150	0x3d8b50c4	0.06802514
151	0xbe966a06	-0.29377764
152	0x3de96892	0.11396898
153	0xbe4c0d0e	-0.19926855
154	0xbdfd2327	-0.123602204
155	0x3eda3e3e	0.42625612
156	0x3dba907f	0.09109592
157	0x3e62bfdf	0.22143506
158	0x3ebe3f8b	0.37157854
159	0xbc9397e8	-0.01801677
160	0xbe803ae4	-0.2504493
161	0x3e5204c2	0.20509627
162	0x3dbee544	0.09321073
163	0x3e8c9e79	0.27464655
164	0xbe25628c	-0.16150874
165	0xbea0aa42	-0.31379896
166	0xbeae33a0	-0.34023762
167	0x3e0362c6	0.12830648
168	0x3ec70d21	0.38877204
169	0x3d2d3388	0.042285472
170	0x3e538b7a	0.20658675
171	0xbe99ea9d	-0.30061808
172	0x3eb2ea33	0.34944305
173	0xbec71ddb	-0.38889965
174	0xbe9439cc	-0.28950346
175	0xbe870556	-0.26371258
176	0xbe868fab	-0.26281485
177	0x3e9191ab	0.28431448
178	0xbdf22225	-0.11822919
179	0x3dc56660	0.09638667
180	0x3e903b48	0.28170228
181	0xbe2fc65b	-0.1716551
182	0xbda8755c	-0.082255095
183	0x3bbb1ea5	0.00571044
184	0x3e3b55fb	0.18294518
185	0x3dd747a1	0.10511709
186	0x3e3c6679	0.18398465
187	0x3e9c2c4e	0.30502552
188	0xbd77b10d	-0.060471583
189	0x3d948ad7	0.07253044
190	0xbc240b66	-0.010012483
191	0xbe3f791c	-0.18698543
192	0xbd6b9647	-0.057516363
193	0xbe505c93	-0.20347814
194	0x3d4931d4	0.049119785
195	0xbe61a52e	-0.22035667
196	0x3eb84950	0.35993433
197	0xbe6934ca	-0.22774044
198	0xbec69d78	-0.38792014
199	0x3c8c5b1b	0.017133286
200	0xbdbe9248	-0.09305245
201	0xbc880c20	-0.016607344
202	0x3d54e9c1	0.051980738
203	0xbdef2025	-0.11676053
204	0xbe096f10	-0.13421273
205	0x3e79ccab	0.24394481
206	0x3cc29747	0.023753775
207	0xbe41baec	-0.18918961
208	0x3dbd4b3c	0.092428654
209	0xbe52d2d6	-0.2058824
210	0x3bd61c00	0.0065340996
211	0xbe036262	-0.12830499
212	0x3e1382c6	0.14405355
213	0xbe613c83	-0.2199574
214	0x3eb07209	0.34462002
215	0xbe7a800f	-0.24462913
216	0x3eb922bb	0.3615931
217	0xbe4d1086	-0.20025834
218	0xbdf67740	-0.12034464
219	0xbe09ed52	-0.13469437
220	0xbdc3376c	-0.09532055
221	0xbebb5a46	-0.3659231
222	0xbe923660	-0.2855711
223	0x3e25d722	0.16195348
224	0xbe00c889	-0.12576498
225	0xbd899624	-0.0671809
226	0x3e7bc4e6	0.2458683
227	0x3ea1720d	0.31532326
228	0x3e8afa24	0.27143967
229	0x3e674847	0.22586165
230	0x3ecde899	0.4021652
231	0x3ea7123a	0.32631093
232	0x3e815071	0.25256684
233	0x3ed88994	0.42292464
234	0x3e9d2819	0.30694655
235	0x3e82005e	0.25390905
236	0x3ea4f80c	0.32220495
237	0x3d7af99a	0.061273195
238	0x3e5f8424	0.21827751
239	0xbebc59d5	-0.36787286
240	0x3d6f5a3f	0.058435675
241	0xbecac619	-0.39604262
242	0xbebfa262	-0.37428576
243	0x3e782e79	0.24236478
244	0xbe9e882b	-0.30963263
245	0x3e925248	0.285784
246	0x3d2dd5e8	0.042440325
247	0x3e276346	0.16346464
248	0x3db629dd	0.088947035
249	0x3e95567d	0.29167548
250	0xbe6378fd	-0.22214122
251	0x3e10c5a8	0.141379
252	0xbe7b0f3a	-0.24517527
253	0x3ec89ac3	0.39180574
254	0x3e2cd3ea	0.16877714
255	0xbeabe93c	-0.3357638

net.6.bias f4 [16]
0	0x3d32f2d8	0.043688625
1	0x3d4ccccd	0.05
2	0x3d80eeef	0.06295573
3	0x3d6ebd38	0.05828592
4	0x3d76caad	0.06025188
5	0x3d819e78	0.06329054
6	0x3d2df4c5	0.04246976
7	0x3d6be421	0.057590608
8	0x3d5150c6	0.051102422
9	0x3d6ea712	0.0582648
10	0x3d4ccccd	0.05
11	0x3d697d86	0.057004474
12	0x3d705a90	0.058680117
13	0x3d4ccccd	0.05
14	0x3d2feb6b	0.04294912
15	0x3d6ca8a4	0.057778016

net.8.weight f4 [393, 16]
0	0x3de9f9f3	0.11424627
1	0xbc154be8	-0.009112336
2	0xbde49124	-0.11160496
3	0x3d4f384a	0.05059079
4	0xbddc496e	-0.10756193
5	0xbd232d0f	-0.039837893
6	0xbd89e7f7	-0.06733697
7	0xbb287158	-0.0025702324
8	0xbca54d20	-0.020178378
9	0xbdcb796b	-0.09935268
10	0x3d03f9c0	0.032220602
11	0xbdd1e20f	-0.102481954
12	0x3d1b7265	0.037950892
13	0xbd394d9c	-0.04524003
14	0x3d916197	0.07098692
15	0xbce8fa54	-0.028439678
16	0xbdfe4f0e	-0.12417422
17	0xbd65669c	-0.05600606
18	0xbc3859dc	-0.011251893
19	0x3db5fd2a	0.08886178
20	0xbdefd0b0	-0.11709726
21	0x3d8afde7	0.06786709
22	0xbded9c81	-0.116021164
23	0x3de76ab0	0.11299646
24	0x3d3a86fa	0.04553888
25	0x3db67a3d	0.08910034
26	0x3dbbb2ee	0.091649875
27	0x3cf8841f	0.030336438
28	0xbd93e917	-0.07222193
29	0xbd874746	-0.06605391
30	0xbd0b727b	-0.034044724
31	0x3daf0281	0.085453995
32	0x3dc5d4c9	0.09659726
33	0xbda7a714	-0.081861645
34	0x3d58b6ae	0.052908592
35	0x3d718dc3	0.058973085
36	0x3c0cec44	0.008601252
37	0xbd4eae4d	-0.050459195
38	0xbdca346f	-0.09873282
39	0x3d5bfe91	0.05370957
40	0x3c124567	0.00892768
41	0x3cde102f	0.027107326
42	0x3ca7d7d8	0.020488665
43	0xbdda4c94	-0.10659137
44	0x3de0be97	0.10973852
45	0x3dec0b06	0.1152554
46	0x3de3adb4	0.111171156
47	0xbdd928a5	-0.106034555
48	0xb98f255e	-0.00027302926
49	0x3d7549fc	0.05988501
50	0xbcd7863e	-0.026309129
51	0x3dc44c24	0.09584835
52	0x3dc2e72c	0.09516749
53	0xbdc777f2	-0.09739675
54	0x3d7fcedc	0.062453136
55	0xbdb3791d	-0.08763335
56	0x3cb6c7fd	0.022312159
57	0xbbc76c6e	-0.006085924
58	0x3d162734	0.03665848
59	0xbca77b86	-0.020444643
60	0xbc15bc44	-0.009139124
61	0x3d8df898	0.06932181
62	0xbb93fd00	-0.004516244
63	0xbde8fe43	-0.113766216
64	0xbc394302	-0.01130748
65	0xbd38639a	-0.045016862
66	0xbdb8c300	-0.09021568
67	0x3d48eddf	0.049054977
68	0x3cf9541b	0.030435612
69	0xbd385035	-0.044998366
70	0xb9bb8539	-0.00035766678
71	0x3db500be	0.08838032
72	0x3d1c0eb9	0.038099978
73	0xbda93b30	-0.08263242
74	0xbd4eb8b0	-0.0504691
75	0xbd98c60b	-0.07459649
76	0x3d8ce6fe	0.06879996
77	0x3d073ad8	0.033015102
78	0xbd9350e8	-0.07193166
79	0x3dd9bbdd	0.10631535
80	0xbd4944d7	-0.049137916
81	0x3dd49b3e	0.103811726
82	0x3dc9395c	0.098253936
83	0xbda0b81f	-0.07847618
84	0x39a1f50e	0.00030890893
85	0x3d72db42	0.05929113
86	0x3d8451a2	0.06460883
87	0x3ba4b975	0.005026991
88	0xbd4c9151	-0.049943272
89	0xbdb1b89e	-0.08677791
90	0xbde3e179	-0.1112699
91	0x3d27f300	0.041003227
92	0x3d5665ea	0.052343287
93	0x3d41fd1c	0.047360525
94	0x3d82ddae	0.06389938
95	0xbd8effa4	-0.06982353
96	0xbc1f8a7b	-0.009737606
97	0x3df73d9a	0.120722964
98	0xbdc73dc5	-0.097285785
99	0xbd91829e	-0.071049914
100	0x3bb685a3	0.00557013
101	0xbd14a87d	-0.036293495
102	0xbdbda0aa	-0.0925916
103	0x3d1f48ea	0.038887896
104	0xbdec04b0	-0.115243316
105	0x3d62c71c	0.055365667
106	0xbd3c9838	-0.046043605
107	0xbdf7ce6f	-0.12099921
108	0xbd5cba92	-0.053888865
109	0x3dba1d7c	0.09087655
110	0x3d75f750	0.06005031
111	0x3d74892e	0.059701137
112	0xbd976fdc	-0.07394382
113	0xbcb9ed2c	-0.0226961
114	0x3ca7f62d	0.020503128
115	0xbd22838d	-0.039676238
116	0xbd02bca4	-0.031918183
117	0x3c6f9cc6	0.01462478
118	0x3d8fa721	0.07014299
119	0xbda6d4cc	-0.081460565
120	0xbda807c2	-0.08204605
121	0xbd3630a5	-0.044479985
122	0xbdc0c992	-0.094134465
123	0xbb21cc4c	-0.002468842
124	0xbdc1577f	-0.09440517
125	0x3deea4ae	0.11652504
126	0x3dbce490	0.09223282
127	0xbdfd1611	-0.123577245
128	0x3c61fef1	0.013793693
129	0xbdbb6647	-0.09150367
130	0xbdc46973	-0.09590425
131	0x3ddc485c	0.10755989
132	0x3d6285a9	0.05530325
133	0xbe05567b	-0.13021271
134	0xbd245217	-0.04011735
135	0xbdbe963b	-0.09305998
136	0x3da4c957	0.08046215
137	0x3dbe28bf	0.092851155
138	0xbd5809d8	-0.052743763
139	0xbd1484e9	-0.036259566
140	0xbafe52d6	-0.0019403349
141	0x3d9942dc	0.074834555
142	0x3dea187e	0.11430453
143	0xbdc81149	-0.09768922
144	0xbdc5f2f5	-0.09665481
145	0x3d4eeb24	0.050517216
146	0x3d6a0b1d	0.057139505
147	0xbdddc248	-0.10828072
148	0xbb7a6663	-0.0038208
149	0x3da9247c	0.08258912
150	0x3a941356	0.0011297266
151	0x3d9f0d6d	0.07766233
152	0x3c1c602e	0.009544415
153	0xbcbc4f6a	-0.022987086
154	0x3d546aac	0.051859543
155	0x3ca15dd7	0.019698067
156	0xbc73aaf2	-0.0148722995
157	0xbd4973c6	-0.049182676
158	0x3d66857a	0.056279637
159	0xbdc706b4	-0.097180754
160	0xbd747f4c	-0.059691712
161	0x3b4dc9e0	0.0031400844
162	0x3d8ed8f7	0.069749765
163	0x3d28e0e1	0.041230086
164	0xbde56233	-0.11200371
165	0x3c57ded7	0.013175688
166	0x3d6007c1	0.054694895
167	0xbdca81fc	-0.09888074
168	0xbd9f4c03	-0.0777817
169	0xbcd01903	-0.025402552
170	0x3de8150a	0.11332138
171	0x3d85434a	0.06506975
172	0xbda90b3a	-0.082540944
173	0x3d247c0c	0.040157363
174	0xbca92054	-0.020645298
175	0xba02cf5c	-0.00049900054
176	0xbdbf0b49	-0.09328324
177	0x3cf89960	0.030346572
178	0xbdb1693a	-0.086626485
179	0xbcdb091d	-0.026737744
180	0x3db774b3	0.089578055
181	0xbc4350dc	-0.011921134
182	0x3db78c7f	0.089623444
183	0x3db27fa6	0.08715753
184	0xbd1e90b2	-0.03871221
185	0xbdd10db2	-0.1020769
186	0xbb9050b0	-0.00440415
187	0x3db3fee5	0.08788852
188	0xbcf4f2e1	-0.02990097
189	0x3c310530	0.010804459
190	0xbcf87e29	-0.030333595
191	0x3d85773f	0.06516885
192	0x3cb7ef41	0.022452952
193	0xba3a2e00	-0.00071021914
194	0x3d60e232	0.054903217
195	0x3deac0ba	0.11462541
196	0xbd2fc798	-0.042914957
197	0x3d0f03db	0.034915786
198	0xbd1d03fc	-0.038333878
199	0xbdc63930	-0.096788764
200	0x3d153b23	0.03643335
201	0xbdda8dfd	-0.10671613
202	0x3d0b851c	0.03406249
203	0xbde45a7b	-0.1115007
204	0xbc10cca7	-0.008837855
205	0xbda4d149	-0.080477305
206	0x3d143437	0.03618261
207	0x3d64e989	0.05588678
208	0x3caff331	0.021478267
209	0x3d4c7a6c	0.049921438
210	0xbdbecdcc	-0.093165964
211	0xbdbce107	-0.09222608
212	0x3c93cb01	0.018041136
213	0x3db2f98f	0.08739006
214	0xbd3ce809	-0.046119723
215	0xbdf290b3	-0.118440054
216	0x3d167e01	0.03674126
217	0x3d802731	0.06257475
218	0x3daa8424	0.08325985
219	0xbd4d3e17	-0.05010804
220	0x3d928d4d	0.07155857
221	0xbda608c0	-0.08107138
222	0x3d0d4fd7	0.03449997
223	0x3d145080	0.036209583
224	0x3d2351a6	0.039872788
225	0x3b41db40	0.0029580146
226	0xbdfca4ca	-0.123361185
227	0xbc8169fc	-0.015797608
228	0xbdf7f552	-0.12107338
229	0x3c8bcd6d	0.017065728
230	0x3da1a04d	0.07891903
231	0xbd758a68	-0.059946448
232	0xbd9cdcd4	-0.07659307
233	0x3ce5f293	0.02806977
234	0x3dd55628	0.104168236
235	0x3c83fb93	0.01611117
236	0xbc71b740	-0.014753163
237	0x3cad42f8	0.021150097
238	0x3db46f66	0.0881031
239	0xbd2807d1	-0.04102308
240	0xbdf52c99	-0.11971397
241	0x3921d400	0.00015433133
242	0xbde7dc17	-0.11321276
243	0x3d77494f	0.060372647
244	0x3cca99fe	0.024731632
245	0x3d8f8c7c	0.07009217
246	0xbc7e5043	-0.015522066
247	0xbdc195ae	-0.09452377
248	0x3da244cd	0.07923279
249	0xbdbebda4	-0.09313515
250	0x3d9b89ea	0.075946644
251	0x3c513745	0.012769525
252	0x3d112f6e	0.035445623
253	0xbdbccdd0	-0.09218943
254	0xbdd4cba1	-0.10390402
255	0xbd7f3a1b	-0.062311273

net.8.bias f4 [393]
0	0x3d3dca71	0.04633564
1	0x3d36640e	0.044529013
2	0x3d3e71e1	0.046495322
3	0x3d37f887	0.04491475
4	0x3d4006cc	0.046881482
5	0x3d3ba925	0.045815606
6	0x3d3d8ca8	0.04627672
7	0x3d35ce92	0.044386454
8	0x3d3df868	0.046379477
9	0x3d37d33d	0.044879187
10	0x3d3d8bc7	0.04627588
11	0x3d35e2c1	0.044405703
12	0x3d3e5c44	0.04647471
13	0x3d382159	0.044953678
14	0x3d3ebe32	0.046568103
15	0x3d3882bd	0.045046557
16	0x3d37447b	0.044743042
17	0x3d3a8757	0.045539226
18	0x3d3b32d4	0.04570277
19	0x3d3d2523	0.046177994
20	0x3d37b7e8	0.04485312
21	0x3d39881c	0.04529582
22	0x3d3b8e75	0.045790154
23	0x3d38f367	0.045154
24	0x3d35be1c	0.044370756
25	0x3d396b2b	0.04526822
26	0x3d3a2065	0.04544105
27	0x3d3c4431	0.04596347
28	0x3d364166	0.044495963
29	0x3d385a98	0.045008272
30	0x3d3a8051	0.04553253
31	0x3d37ab50	0.04484111
32	0x3d3692cc	0.04457359
33	0x3d39fd34	0.04540749
34	0x3d3aaf14	0.045577124
35	0x3d3cb1ce	0.046068005
36	0x3d37138d	0.04469638
37	0x3d38fa72	0.04516072
38	0x3d3b0aa9	0.045664463
39	0x3d385a89	0.045008216
40	0x3d364157	0.044495907
41	0x3d39b28f	0.045336302
42	0x3d3a66ed	0.045508314
43	0x3d3c6d89	0.0460029
44	0x3d36c301	0.044619564
45	0x3d38af01	0.04508877
46	0x3d3ac280	0.045595646
47	0x3d380bf2	0.044933267
48	0x3d39fd60	0.045407653
49	0x3d3c6178	0.04599139
50	0x3d3d17d4	0.046165302
51	0x3d3e889f	0.04651701
52	0x3d3a784f	0.04552489
53	0x3d3baada	0.045817234
54	0x3d3d5320	0.046221852
55	0x3d3b0f56	0.045668922
56	0x3d35bd39	0.04436991
57	0x3d395535	0.045247275
58	0x3d3a0431	0.045414153
59	0x3d3c23b0	0.04593247
60	0x3d363e3d	0.04449295
61	0x3d384276	0.044985257
62	0x3d3a675e	0.045508735
63	0x3d37a2d0	0.044833004
64	0x3d36b45b	0.044605594
65	0x3d3a0183	0.045411598
66	0x3d3ab9b5	0.04558726
67	0x3d3caa13	0.046060633
68	0x3d3733a8	0.044726998
69	0x3d390a8c	0.045176074
70	0x3d3b0ec6	0.045668386
71	0x3d3862c8	0.04501608
72	0x3d36a1fd	0.044588078
73	0x3d3a101b	0.045425516
74	0x3d3abf1b	0.04559241
75	0x3d3cc71b	0.04608832
76	0x3d371d8f	0.044705924
77	0x3d390820	0.045173764
78	0x3d3b1d97	0.045682516
79	0x3d386a42	0.04502321
80	0x3d3b5186	0.045732044
81	0x3d3785a6	0.04480519
82	0x3d3b9f44	0.045806184
83	0x3d3a2ab8	0.045450896
84	0x3d3c0af1	0.045908872
85	0x3d3b08ff	0.045662876
86	0x3d3b3739	0.04570696
87	0x3d3bc8d8	0.045845836
88	0x3d3a503d	0.045486677
89	0x3d361a41	0.04445863
90	0x3d3aa089	0.045563255
91	0x3d391533	0.045186233
92	0x3d3b216f	0.04568618
93	0x3d3a045f	0.045414325
94	0x3d3a3072	0.045456357
95	0x3d3acb35	0.04560395
96	0x3d3abc81	0.045589928
97	0x3d36a9d7	0.044595566
98	0x3d3b0b9f	0.04566538
99	0x3d39873d	0.04529499
100	0x3d3b858c	0.045781657
101	0x3d3a7158	0.04551825
102	0x3d3a9eb0	0.045561492
103	0x3d3b374f	0.045707043
104	0x3d399f6a	0.045318045
105	0x3d34f51a	0.04417906
106	0x3d39ee16	0.045393072
107	0x3d384d45	0.044995565
108	0x3d3a8674	0.04553838
109	0x3d394bdc	0.04523836
110	0x3d397659	0.04527888
111	0x3d3a1bc2	0.04543663
112	0x3d3b0644	0.045660272
113	0x3d37033f	0.04468083
114	0x3d3b549b	0.045734983
115	0x3d39d3e9	0.04536811
116	0x3d3bcc25	0.045848984
117	0x3d3ab9d5	0.04558738
118	0x3d3ae71c	0.04563056
119	0x3d3b7fb7	0.045776095
120	0x3d39c0f2	0.045350023
121	0x3d354c26	0.044262074
122	0x3d3a1070	0.045425832
123	0x3d3876fb	0.045035344
124	0x3d3a9c6d	0.045559336
125	0x3d396e1d	0.045271028
126	0x3d399acc	0.04531364
127	0x3d3a3de4	0.04546918
128	0x3d39a598	0.045323938
129	0x3d3521af	0.044221576
130	0x3d39f436	0.045398913
131	0x3d385b68	0.045009047
132	0x3d3a841c	0.045536146
133	0x3d395496	0.045246683
134	0x3d397fcc	0.045287892
135	0x3d3a21d8	0.045442432
136	0x3d3c1efa	0.04592798
137	0x3d38a6a3	0.045080792
138	0x3d3c6af8	0.04600045
139	0x3d3b09df	0.04566371
140	0x3d3cc83b	0.046089392
141	0x3d3bdb40	0.04586339
142	0x3d3c09e3	0.045907866
143	0x3d3c936f	0.04603904
144	0x3d3cc792	0.046088763
145	0x3d3b3fcb	0.045715135
146	0x3d3a12ee	0.04542821
147	0x3d3b1cdc	0.04568182
148	0x3d38789c	0.045036897
149	0x3d39367f	0.045217987
150	0x3d3a93aa	0.04555098
151	0x3d3cc942	0.046090372
152	0x3d3ccb1b	0.046092134
153	0x3d3b765d	0.045767177
154	0x3d3a6427	0.04550567
155	0x3d3b5bd5	0.045741875
156	0x3d38d940	0.04512906
157	0x3d39a277	0.045320954
158	0x3d3aed02	0.045636185
159	0x3d3cde6e	0.046110563
160	0x3d3cb8fb	0.04607485
161	0x3d3b26fc	0.045691475
162	0x3d3a0a77	0.045420136
163	0x3d3b094d	0.045663167
164	0x3d387518	0.045033544
165	0x3d3929a9	0.045205746
166	0x3d3a8065	0.045532603
167	0x3d3cb70f	0.046073016
168	0x3d3c4cea	0.04597179
169	0x3d3aad81	0.045575622
170	0x3d396d48	0.045270234
171	0x3d3a84ac	0.045536682
172	0x3d37ca50	0.044870675
173	0x3d38848e	0.04504829
174	0x3d39f0c7	0.04539564
175	0x3d3c4b08	0.045969993
176	0x3d3ae4e9	0.045628462
177	0x3d38d550	0.045125306
178	0x3d373363	0.04472674
179	0x3d3891c7	0.0450609
180	0x3d3565a4	0.044286385
181	0x3d361732	0.044455715
182	0x3d37c229	0.0448629
183	0x3d3ac6e0	0.04559982
184	0x3d3d1b92	0.04616887
185	0x3d3b9929	0.04580036
186	0x3d3a7ed9	0.045531128
187	0x3d3b7ab6	0.045771323
188	0x3d38eec3	0.045149576
189	0x3d39a538	0.04532358
190	0x3d3af56e	0.045644216
191	0x3d3d1ae8	0.046168238
192	0x3d3dee2e	0.046369724
193	0x3d3d2b16	0.046183668
194	0x3d3c4665	0.04596557
195	0x3d3d1850	0.046165764
196	0x3d3ae77a	0.04563091
197	0x3d3bcaae	0.045847587
198	0x3d3ce441	0.046116117
199	0x3d3e270e	0.046423964
200	0x3d3ca0c7	0.046051767
201	0x3d3b1c4c	0.045681283
202	0x3d39f08f	0.04539543
203	0x3d3af995	0.045648176
204	0x3d38589e	0.045006387
205	0x3d39165d	0.045187343
206	0x3d3a73be	0.045520537
207	0x3d3ca58d	0.04605632
208	0x3d32d911	0.043664042
209	0x3d365371	0.04451317
210	0x3d35b81d	0.044365037
211	0x3d34d163	0.044145
212	0x3d38aa25	0.045084137
213	0x3d3715bb	0.04469846
214	0x3d331c34	0.04372807
215	0x3d36b4a8	0.04460588
216	0x3d324767	0.043525126
217	0x3d35fe72	0.04443211
218	0x3d35b2c4	0.044359937
219	0x3d344178	0.04400775
220	0x3d389f9d	0.045074094
221	0x3d36ce1d	0.04463016
222	0x3d32aafb	0.04362009
223	0x3d365d53	0.044522595
224	0x3d335592	0.043782778
225	0x3d36c387	0.044620063
226	0x3d364931	0.044503395
227	0x3d35427a	0.04425285
228	0x3d3927ad	0.045203853
229	0x3d378cfc	0.044812188
230	0x3d33a54a	0.043858804
231	0x3d371f9a	0.044707872
232	0x3d36d630	0.04463786
233	0x3d397aea	0.045283236
234	0x3d38b831	0.045097534
235	0x3d387412	0.04503257
236	0x3d3b4c34	0.04572697
237	0x3d3a1eaa	0.0454394
238	0x3d370610	0.044683516
239	0x3d39be60	0.04534757
240	0x3d33dc14	0.043911055
241	0x3d372921	0.044716958
242	0x3d36b087	0.044601943
243	0x3d35b7cf	0.044364747
244	0x3d39824c	0.045290276
245	0x3d37f12e	0.04490774
246	0x3d342da3	0.043988835
247	0x3d378142	0.044801004
248	0x3d33a084	0.04385425
249	0x3d36dd45	0.044644613
250	0x3d364d29	0.04450718
251	0x3d357e23	0.044309746
252	0x3d39218e	0.045198016
253	0x3d37a17f	0.04483175
254	0x3d33e876	0.043922864
255	0x3d3735c7	0.04472902

exp_avg f4 [64, 1]
0	0xb8e8e24c	-0.00011104773
1	0xbb4ee24a	-0.0031567984
2	0x39c5a93a	0.00037700852
3	0xbbb424f2	-0.0054975683
4	0x3b049fc7	0.0020236836
5	0xbb4fd6a7	-0.0031713636
6	0xbb8ad253	-0.0042364984
7	0x3a26afef	0.00063586136
8	0x3b0bd2f1	0.0021335448
9	0x39b4749d	0.0003441916
10	0xbac84ee5	-0.0015282301
11	0x3b0f7001	0.0021886828
12	0x3a37bb07	0.0007008765
13	0xb9cad7a5	-0.0003868911
14	0x3a90dda4	0.0011052382
15	0xbb546f61	-0.003241502
16	0xbacf822c	-0.0015831641
17	0x3b9cfc2a	0.0047908025
18	0x3b558132	0.0032578227
19	0xbb60b5cf	-0.0034288054
20	0xbb55cd5d	-0.0032623627
21	0x38b298bc	8.5161504e-05
22	0x3a1f10b0	0.0006067855
23	0xbaff3b82	-0.0019472691
24	0x3af7f7a0	0.0018918402
25	0xbae01471	-0.0017095936
26	0xbb44ec7c	-0.0030048182
27	0xb95b17f9	-0.00020894398
28	0xba96e88e	-0.0011513398
29	0x391b3e9d	0.00014805277
30	0x3a8a64c1	0.0010558591
31	0xb979e117	-0.00023830343
32	0xbb44406e	-0.002994563
33	0xb9d32c47	-0.00040278045
34	0x3b840716	0.004029165
35	0xbb45e031	-0.0030193443
36	0xba64f0cb	-0.0008733391
37	0xbb230f90	-0.0024881102
38	0xb9f7a86a	-0.0004723699
39	0x3a5febc7	0.00085419085
40	0x39e08000	0.00042819977
41	0x3a46bcc0	0.00075812265
42	0x39454342	0.0001881244
43	0x3a4477fd	0.0007494686
44	0x39ad1549	0.0003301299
45	0x3aa01893	0.0012214355
46	0xbabaa12a	-0.0014238704
47	0x3a038818	0.0005017533
48	0x39405e70	0.00018345728
49	0xb6a3a371	-4.8768056e-06
50	0x3a0555ca	0.0005086331
51	0xba891709	-0.0010459136
52	0x3b7b1ac5	0.0038315516
53	0xb9492dd9	-0.00019185933
54	0x3b6115cb	0.0034345265
55	0xba1263e6	-0.0005584344
56	0xb9fe265c	-0.00048475235
57	0x39c564e4	0.00037649937
58	0xba4ab48d	-0.00077325926
59	0x393054e3	0.00016816291
60	0xbb94d06c	-0.0045414474
61	0xbb328c93	-0.0027244433
62	0x3b16a079	0.0022983833
63	0x3a5d1a65	0.0008434414

exp_avg_sq f4 [64, 1]
0	0x3602cfed	1.9492538e-06
1	0x372317f1	9.721131e-06
2	0x33a50a36	7.6852686e-08
3	0x3655f4be	3.1881932e-06
4	0x377fad1a	1.5239488e-05
5	0x366992dc	3.480519e-06
6	0x3727d870	1.0004369e-05
7	0x357ef347	9.497639e-07
8	0x3616f42d	2.249387e-06
9	0x351e2919	5.891939e-07
10	0x351d0424	5.8493083e-07
11	0x374b2fd9	1.2110883e-05
12	0x35e5f666	1.7133541e-06
13	0x33bbb5d0	8.7409376e-08
14	0x3655a000	3.1832606e-06
15	0x388895da	6.5128974e-05
16	0x33d1a426	9.762179e-08
17	0x36f11aa6	7.185462e-06
18	0x375b279f	1.3062642e-05
19	0x37d67afd	2.5568059e-05
20	0x363ad83f	2.7842032e-06
21	0x32f46f78	2.8456029e-08
22	0x36a58d51	4.9338346e-06
23	0x361c2bd5	2.3271325e-06
24	0x37f02b40	2.863037e-05
25	0x379c465f	1.8629418e-05
26	0x3634239e	2.6842822e-06
27	0x35147c4b	5.5315166e-07
28	0x351ca615	5.835621e-07
29	0x34eb7e85	4.3864216e-07
30	0x35c78352	1.4864875e-06
31	0x350cba45	5.242512e-07
32	0x3885c6c8	6.37896e-05
33	0x348ff44e	2.681358e-07
34	0x3718bf33	9.104423e-06
35	0x371a0b94	9.181811e-06
36	0x357c6939	9.4030435e-07
37	0x37ee17b4	2.8382849e-05
38	0x347d500b	2.359158e-07
39	0x348a3b03	2.574744e-07
40	0x36862d2a	3.998769e-06
41	0x37232e8a	9.726393e-06
42	0x370f2ee8	8.534385e-06
43	0x34a4c5a4	3.0691183e-07
44	0x34c8eec3	3.7426625e-07
45	0x37abc509	2.047654e-05
46	0x3511963b	5.4235323e-07
47	0x3598c45e	1.1382033e-06
48	0x347d2126	2.357452e-07
49	0x3223af1f	9.527667e-09
50	0x36e92243	6.9479297e-06
51	0x371e7246	9.44414e-06
52	0x36f6eec6	7.359168e-06
53	0x35a781a2	1.2480198e-06
54	0x37c865f1	2.3889328e-05
55	0x3629a5e9	2.5279535e-06
56	0x34efd5e9	4.467286e-07
57	0x33d8861a	1.0082677e-07
58	0x351d7faf	5.867286e-07
59	0x35d52cfd	1.588283e-06
60	0x364794f1	2.9740006e-06
61	0x36a5bf2b	4.939638e-06
62	0x384bc7fe	4.858523e-05
63	0x349a548c	2.874625e-07

exp_avg f4 [64]
0	0xbb8b1c38	-0.0042453073
1	0xbbc387c1	-0.005967111
2	0x3bced004	0.0063114185
3	0xbc9a1449	-0.0188085
4	0x3bcb84b5	0.0062108883
5	0xbc758486	-0.014985209
6	0xbc354c51	-0.0110655585
7	0x3c165392	0.009175198
8	0x3c3711e6	0.011173701
9	0x3b9a4a06	0.0047085313
10	0xbb804634	-0.003914619
11	0x3c48a001	0.012245179
12	0xb9a3cbc2	-0.00031241594
13	0xbbb968c7	-0.0056582424
14	0x3bfefd02	0.0077816257
15	0xbc125e1a	-0.008933568
16	0xbc07e912	-0.008295314
17	0x3bfa5ed9	0.0076407013
18	0x3c0ef3f8	0.008725159
19	0xbc97cc8c	-0.018530153
20	0xbbf9f65f	-0.0076282467
21	0x3a902f35	0.0011000397
22	0x39925f91	0.00027918493
23	0xbc0745c5	-0.00825638
24	0x3c598c8f	0.013278141
25	0xbbbad132	-0.0057012076
26	0xbc1a4d6f	-0.009417876
27	0xbb65c952	-0.0035062623
28	0xbc75ec49	-0.015009948
29	0x3b2fa820	0.0026803091
30	0x3c6ee614	0.014581222
31	0xbb745107	-0.0037279741
32	0xbc50bb93	-0.012740034
33	0xbb91695c	-0.0044376086
34	0x3c7df619	0.015500569
35	0xbc0ca93f	-0.008585273
36	0xbc384289	-0.011246332
37	0xbc2f1e05	-0.01068831
38	0xbbff3521	-0.007788316
39	0x3c43e1b7	0.01195567
40	0x3b93c6eb	0.004509797
41	0xbb69e734	-0.0035690786
42	0x39fb21c1	0.000478996
43	0x3c292ad9	0.010325157
44	0x3b90ff59	0.004424971
45	0x3bbae174	0.0057031456
46	0x3b8df7be	0.0043325117
47	0x3bf0ab65	0.0073446506
48	0x3b528656	0.0032123527
49	0x3a81ac74	0.0009893314
50	0xb9f3f18c	-0.00046528538
51	0xbc1ae349	-0.009453603
52	0x3c9cd446	0.019144189
53	0xbb4621a6	-0.0030232458
54	0x3b2af3f1	0.0026085342
55	0x39e42434	0.00043514522
56	0xbbf5b3b2	-0.007498228
57	0x3ba2d47c	0.004969178
58	0xbc25dcec	-0.010123473
59	0xbb96f12e	-0.0046063876
60	0xbbed06e3	-0.007233487
61	0xbd119c4c	-0.035549447
62	0x3c80696a	0.015675265
63	0x3b38eabf	0.0028216091

exp_avg_sq f4 [64]
0	0x37f65945	2.9367055e-05
1	0x39102739	0.00013747522
2	0x3755337e	1.2707778e-05
3	0x38245542	3.918005e-05
4	0x39907c70	0.00027558533
5	0x38e530a2	0.000109286295
6	0x38fb91e8	0.0001199579
7	0x39315f11	0.0001691545
8	0x386dcc8f	5.6695713e-05
9	0x38ded339	0.00010625128
10	0x36c2eabf	5.8089786e-06
11	0x39ce6562	0.00039366918
12	0x37bc0739	2.241471e-05
13	0x37865a78	1.6016173e-05
14	0x36b0faae	5.2743917e-06
15	0x3a53ec74	0.00080842455
16	0x37275f47	9.976159e-06
17	0x38bbf0ed	8.961731e-05
18	0x396e6e5a	0.00022738558
19	0x39da3af3	0.0004162412
20	0x374dd4ac	1.2268469e-05
21	0x368fd252	4.2862166e-06
22	0x39069624	0.00012835168
23	0x38cddf98	9.816809e-05
24	0x3996897b	0.0002871266
25	0x39bb7909	0.00035757598
26	0x3826b235	3.9743452e-05
27	0x38b8bc04	8.808824e-05
28	0x38e57832	0.00010941959
29	0x3894221e	7.063545e-05
30	0x398ec3c1	0.000272302
31	0x38ca786c	9.654541e-05
32	0x3a52d8f3	0.0008043192
33	0x38259b75	3.9483846e-05
34	0x387251ac	5.777336e-05
35	0x37ae4f45	2.077933e-05
36	0x3928faa8	0.00016115105
37	0x39b4bee9	0.00034474515
38	0x3822d756	3.8824357e-05
39	0x383640c0	4.3452485e-05
40	0x38604226	5.3467367e-05
41	0x390c4786	0.00013378085
42	0x38ee0c48	0.00011351012
43	0x385e56ee	5.3009884e-05
44	0x38911d4c	6.919596e-05
45	0x39745041	0.0002329955
46	0x37c62127	2.3618877e-05
47	0x3968ed44	0.00022213632
48	0x382c3a39	4.106222e-05
49	0x3597a88f	1.1299434e-06
50	0x390ca9fd	0.00013414766
51	0x3939db9c	0.00017724786
52	0x393917b7	0.0001765181
53	0x396426f5	0.00021758287
54	0x39d83bf9	0.00041243414
55	0x387d9ba5	6.0464856e-05
56	0x389db8d7	7.5207725e-05
57	0x3792d6dc	1.7504608e-05
58	0x38d89549	0.00010327489
59	0x385f2442	5.320111e-05
60	0x37d017e8	2.4806664e-05
61	0x3a608304	0.0008564445
62	0x3a2b3bda	0.0006532051
63	0x364e56bb	3.0746876e-06
